…
 38            [-1, 31]  1         0  yolo.nn.modules.conv.Concat                  [1]                           
 39                  -1  1      9264  yolo.nn.modules.dan.Conv_BN                  [64, 16]                      
 40                  -1  1       147  yolo.nn.modules.dan.Conv_BN                  [16, 1]                       
 41                  -1  1         4  yolo.nn.modules.dan.AdaptiveAvgPooling       [1]                           
 52        [15, 18, 21]  1   3776275  yolo.nn.modules.head.Detect                  [1, [192, 384, 576]]          
Layer 22 is GradReversal()
Layer 23 is Conv_BN(
  (conv1): Conv2d(192, 64, kernel_size=(3, 3), stride=(1, 1), padding=(1, 1))
  (bn1): BatchNorm2d(64, eps=1e-05, momentum=0.1, affine=True, track_running_stats=True)
  (relu): ReLU(inplace=True)
)
Layer 24 is MaxPool(
  (pool): AdaptiveAvgPool2d(output_size=20)
)
Layer 25 is GradReversal()
Layer 26 is Conv_BN(
  (conv1): Conv2d(384, 128, kernel_size=(3, 3), stride=(1, 1), padding=(1, 1))
  (bn1): BatchNorm2d(128, eps=1e-05, momentum=0.1, affine=True, track_running_stats=True)
  (relu): ReLU(inplace=True)
)
Layer 27 is MaxPool(
  (pool): AdaptiveAvgPool2d(output_size=20)
)
Layer 28 is Conv_BN(
  (conv1): Conv2d(128, 64, kernel_size=(3, 3), stride=(1, 1), padding=(1, 1))
  (bn1): BatchNorm2d(64, eps=1e-05, momentum=0.1, affine=True, track_running_stats=True)
  (relu): ReLU(inplace=True)
)
Layer 29 is Concat()
Layer 30 is Conv_BN(
  (conv1): Conv2d(128, 32, kernel_size=(3, 3), stride=(1, 1), padding=(1, 1))
  (bn1): BatchNorm2d(32, eps=1e-05, momentum=0.1, affine=True, track_running_stats=True)
  (relu): ReLU(inplace=True)
)
Layer 31 is MaxPool(
  (pool): AdaptiveAvgPool2d(output_size=10)
)
Layer 32 is GradReversal()
Layer 33 is Conv_BN(
  (conv1): Conv2d(576, 256, kernel_size=(3, 3), stride=(1, 1), padding=(1, 1))
  (bn1): BatchNorm2d(256, eps=1e-05, momentum=0.1, affine=True, track_running_stats=True)
  (relu): ReLU(inplace=True)
)
Layer 34 is Conv_BN(
  (conv1): Conv2d(256, 128, kernel_size=(3, 3), stride=(1, 1), padding=(1, 1))
  (bn1): BatchNorm2d(128, eps=1e-05, momentum=0.1, affine=True, track_running_stats=True)
  (relu): ReLU(inplace=True)
)
Layer 35 is MaxPool(
  (pool): AdaptiveAvgPool2d(output_size=10)
)
Layer 36 is Conv_BN(
  (conv1): Conv2d(128, 64, kernel_size=(3, 3), stride=(1, 1), padding=(1, 1))
  (bn1): BatchNorm2d(64, eps=1e-05, momentum=0.1, affine=True, track_running_stats=True)
  (relu): ReLU(inplace=True)
)
Layer 37 is Conv_BN(
  (conv1): Conv2d(64, 32, kernel_size=(3, 3), stride=(1, 1), padding=(1, 1))
  (bn1): BatchNorm2d(32, eps=1e-05, momentum=0.1, affine=True, track_running_stats=True)
  (relu): ReLU(inplace=True)
)
Layer 38 is Concat()
Layer 39 is Conv_BN(
  (conv1): Conv2d(64, 16, kernel_size=(3, 3), stride=(1, 1), padding=(1, 1))
  (bn1): BatchNorm2d(16, eps=1e-05, momentum=0.1, affine=True, track_running_stats=True)
  (relu): ReLU(inplace=True)
)
Layer 40 is Conv_BN(
  (conv1): Conv2d(16, 1, kernel_size=(3, 3), stride=(1, 1), padding=(1, 1))
  (bn1): BatchNorm2d(1, eps=1e-05, momentum=0.1, affine=True, track_running_stats=True)
  (relu): ReLU(inplace=True)
)
Layer 41 is AdaptiveAvgPooling(
  (pool): AdaptiveAvgPool2d(output_size=1)
  (fc1): Linear(in_features=1, out_features=2, bias=True)
  (flat): Flatten(start_dim=1, end_dim=-1)
)
Layer 42 is Detect(
  (cv2): ModuleList(
    (0): Sequential(
      (0): Conv(
        (conv): Conv2d(192, 64, kernel_size=(3, 3), stride=(1, 1), padding=(1, 1), bias=False)
        (bn): BatchNorm2d(64, eps=1e-05, momentum=0.1, affine=True, track_running_stats=True)
        (act): SiLU()
      )
      (1): Conv(
        (conv): Conv2d(64, 64, kernel_size=(3, 3), stride=(1, 1), padding=(1, 1), bias=False)
        (bn): BatchNorm2d(64, eps=1e-05, momentum=0.1, affine=True, track_running_stats=True)
        (act): SiLU()
      )
      (2): Conv2d(64, 64, kernel_size=(1, 1), stride=(1, 1))
    )
    (1): Sequential(
      (0): Conv(
        (conv): Conv2d(384, 64, kernel_size=(3, 3), stride=(1, 1), padding=(1, 1), bias=False)
        (bn): BatchNorm2d(64, eps=1e-05, momentum=0.1, affine=True, track_running_stats=True)
        (act): SiLU()
      )
      (1): Conv(
        (conv): Conv2d(64, 64, kernel_size=(3, 3), stride=(1, 1), padding=(1, 1), bias=False)
        (bn): BatchNorm2d(64, eps=1e-05, momentum=0.1, affine=True, track_running_stats=True)
        (act): SiLU()
      )
      (2): Conv2d(64, 64, kernel_size=(1, 1), stride=(1, 1))
    )
    (2): Sequential(
      (0): Conv(
        (conv): Conv2d(576, 64, kernel_size=(3, 3), stride=(1, 1), padding=(1, 1), bias=False)
        (bn): BatchNorm2d(64, eps=1e-05, momentum=0.1, affine=True, track_running_stats=True)
        (act): SiLU()
      )
      (1): Conv(
        (conv): Conv2d(64, 64, kernel_size=(3, 3), stride=(1, 1), padding=(1, 1), bias=False)
        (bn): BatchNorm2d(64, eps=1e-05, momentum=0.1, affine=True, track_running_stats=True)
        (act): SiLU()
      )
      (2): Conv2d(64, 64, kernel_size=(1, 1), stride=(1, 1))
    )
  )
  (cv3): ModuleList(
    (0): Sequential(
      (0): Conv(
        (conv): Conv2d(192, 192, kernel_size=(3, 3), stride=(1, 1), padding=(1, 1), bias=False)
        (bn): BatchNorm2d(192, eps=1e-05, momentum=0.1, affine=True, track_running_stats=True)
        (act): SiLU()
      )
      (1): Conv(
        (conv): Conv2d(192, 192, kernel_size=(3, 3), stride=(1, 1), padding=(1, 1), bias=False)
        (bn): BatchNorm2d(192, eps=1e-05, momentum=0.1, affine=True, track_running_stats=True)
        (act): SiLU()
      )
      (2): Conv2d(192, 1, kernel_size=(1, 1), stride=(1, 1))
    )
    (1): Sequential(
      (0): Conv(
        (conv): Conv2d(384, 192, kernel_size=(3, 3), stride=(1, 1), padding=(1, 1), bias=False)
        (bn): BatchNorm2d(192, eps=1e-05, momentum=0.1, affine=True, track_running_stats=True)
        (act): SiLU()
      )
      (1): Conv(
        (conv): Conv2d(192, 192, kernel_size=(3, 3), stride=(1, 1), padding=(1, 1), bias=False)
        (bn): BatchNorm2d(192, eps=1e-05, momentum=0.1, affine=True, track_running_stats=True)
        (act): SiLU()
      )
      (2): Conv2d(192, 1, kernel_size=(1, 1), stride=(1, 1))
    )
    (2): Sequential(
      (0): Conv(
        (conv): Conv2d(576, 192, kernel_size=(3, 3), stride=(1, 1), padding=(1, 1), bias=False)
        (bn): BatchNorm2d(192, eps=1e-05, momentum=0.1, affine=True, track_running_stats=True)
        (act): SiLU()
      )
      (1): Conv(
        (conv): Conv2d(192, 192, kernel_size=(3, 3), stride=(1, 1), padding=(1, 1), bias=False)
        (bn): BatchNorm2d(192, eps=1e-05, momentum=0.1, affine=True, track_running_stats=True)
        (act): SiLU()
      )
      (2): Conv2d(192, 1, kernel_size=(1, 1), stride=(1, 1))
    )
  )
  (dfl): DFL(
    (conv): Conv2d(16, 1, kernel_size=(1, 1), stride=(1, 1), bias=False)
  )
)
Layer 22 is GradReversal()
Layer 23 is Conv_BN(
  (conv1): Conv2d(192, 64, kernel_size=(3, 3), stride=(1, 1), padding=(1, 1))
  (bn1): BatchNorm2d(64, eps=1e-05, momentum=0.1, affine=True, track_running_stats=True)
  (relu): ReLU(inplace=True)
)
Layer 24 is MaxPool(
  (pool): AdaptiveAvgPool2d(output_size=20)
)
Layer 25 is GradReversal()
Layer 26 is Conv_BN(
  (conv1): Conv2d(384, 128, kernel_size=(3, 3), stride=(1, 1), padding=(1, 1))
  (bn1): BatchNorm2d(128, eps=1e-05, momentum=0.1, affine=True, track_running_stats=True)
  (relu): ReLU(inplace=True)
)
Layer 27 is MaxPool(
  (pool): AdaptiveAvgPool2d(output_size=20)
)
Layer 28 is Conv_BN(
  (conv1): Conv2d(128, 64, kernel_size=(3, 3), stride=(1, 1), padding=(1, 1))
  (bn1): BatchNorm2d(64, eps=1e-05, momentum=0.1, affine=True, track_running_stats=True)
  (relu): ReLU(inplace=True)
)
Layer 29 is Concat()
Layer 30 is Conv_BN(
  (conv1): Conv2d(128, 32, kernel_size=(3, 3), stride=(1, 1), padding=(1, 1))
  (bn1): BatchNorm2d(32, eps=1e-05, momentum=0.1, affine=True, track_running_stats=True)
  (relu): ReLU(inplace=True)
)
Layer 31 is MaxPool(
  (pool): AdaptiveAvgPool2d(output_size=10)
)
Layer 32 is GradReversal()
Layer 33 is Conv_BN(
  (conv1): Conv2d(576, 256, kernel_size=(3, 3), stride=(1, 1), padding=(1, 1))
  (bn1): BatchNorm2d(256, eps=1e-05, momentum=0.1, affine=True, track_running_stats=True)
  (relu): ReLU(inplace=True)
)
Layer 34 is Conv_BN(
  (conv1): Conv2d(256, 128, kernel_size=(3, 3), stride=(1, 1), padding=(1, 1))
  (bn1): BatchNorm2d(128, eps=1e-05, momentum=0.1, affine=True, track_running_stats=True)
  (relu): ReLU(inplace=True)
)
Layer 35 is MaxPool(
  (pool): AdaptiveAvgPool2d(output_size=10)
)
Layer 36 is Conv_BN(
  (conv1): Conv2d(128, 64, kernel_size=(3, 3), stride=(1, 1), padding=(1, 1))
  (bn1): BatchNorm2d(64, eps=1e-05, momentum=0.1, affine=True, track_running_stats=True)
  (relu): ReLU(inplace=True)
)
Layer 37 is Conv_BN(
  (conv1): Conv2d(64, 32, kernel_size=(3, 3), stride=(1, 1), padding=(1, 1))
  (bn1): BatchNorm2d(32, eps=1e-05, momentum=0.1, affine=True, track_running_stats=True)
  (relu): ReLU(inplace=True)
)
Layer 38 is Concat()
Layer 39 is Conv_BN(
  (conv1): Conv2d(64, 16, kernel_size=(3, 3), stride=(1, 1), padding=(1, 1))
  (bn1): BatchNorm2d(16, eps=1e-05, momentum=0.1, affine=True, track_running_stats=True)
  (relu): ReLU(inplace=True)
)
Layer 40 is Conv_BN(
  (conv1): Conv2d(16, 1, kernel_size=(3, 3), stride=(1, 1), padding=(1, 1))
  (bn1): BatchNorm2d(1, eps=1e-05, momentum=0.1, affine=True, track_running_stats=True)
  (relu): ReLU(inplace=True)
)
Layer 41 is AdaptiveAvgPooling(
  (pool): AdaptiveAvgPool2d(output_size=1)
  (fc1): Linear(in_features=1, out_features=2, bias=True)
  (flat): Flatten(start_dim=1, end_dim=-1)
)
Layer 42 is Detect(
  (cv2): ModuleList(
    (0): Sequential(
      (0): Conv(
        (conv): Conv2d(192, 64, kernel_size=(3, 3), stride=(1, 1), padding=(1, 1), bias=False)
        (bn): BatchNorm2d(64, eps=1e-05, momentum=0.1, affine=True, track_running_stats=True)
        (act): SiLU()
      )
      (1): Conv(
        (conv): Conv2d(64, 64, kernel_size=(3, 3), stride=(1, 1), padding=(1, 1), bias=False)
        (bn): BatchNorm2d(64, eps=1e-05, momentum=0.1, affine=True, track_running_stats=True)
        (act): SiLU()
      )
      (2): Conv2d(64, 64, kernel_size=(1, 1), stride=(1, 1))
    )
    (1): Sequential(
      (0): Conv(
        (conv): Conv2d(384, 64, kernel_size=(3, 3), stride=(1, 1), padding=(1, 1), bias=False)
        (bn): BatchNorm2d(64, eps=1e-05, momentum=0.1, affine=True, track_running_stats=True)
        (act): SiLU()
      )
      (1): Conv(
        (conv): Conv2d(64, 64, kernel_size=(3, 3), stride=(1, 1), padding=(1, 1), bias=False)
        (bn): BatchNorm2d(64, eps=1e-05, momentum=0.1, affine=True, track_running_stats=True)
        (act): SiLU()
      )
      (2): Conv2d(64, 64, kernel_size=(1, 1), stride=(1, 1))
    )
    (2): Sequential(
      (0): Conv(
        (conv): Conv2d(576, 64, kernel_size=(3, 3), stride=(1, 1), padding=(1, 1), bias=False)
        (bn): BatchNorm2d(64, eps=1e-05, momentum=0.1, affine=True, track_running_stats=True)
        (act): SiLU()
      )
      (1): Conv(
        (conv): Conv2d(64, 64, kernel_size=(3, 3), stride=(1, 1), padding=(1, 1), bias=False)
        (bn): BatchNorm2d(64, eps=1e-05, momentum=0.1, affine=True, track_running_stats=True)
        (act): SiLU()
      )
      (2): Conv2d(64, 64, kernel_size=(1, 1), stride=(1, 1))
    )
  )
  (cv3): ModuleList(
    (0): Sequential(
      (0): Conv(
        (conv): Conv2d(192, 192, kernel_size=(3, 3), stride=(1, 1), padding=(1, 1), bias=False)
        (bn): BatchNorm2d(192, eps=1e-05, momentum=0.1, affine=True, track_running_stats=True)
        (act): SiLU()
      )
      (1): Conv(
        (conv): Conv2d(192, 192, kernel_size=(3, 3), stride=(1, 1), padding=(1, 1), bias=False)
        (bn): BatchNorm2d(192, eps=1e-05, momentum=0.1, affine=True, track_running_stats=True)
        (act): SiLU()
      )
      (2): Conv2d(192, 1, kernel_size=(1, 1), stride=(1, 1))
    )
    (1): Sequential(
      (0): Conv(
        (conv): Conv2d(384, 192, kernel_size=(3, 3), stride=(1, 1), padding=(1, 1), bias=False)
        (bn): BatchNorm2d(192, eps=1e-05, momentum=0.1, affine=True, track_running_stats=True)
        (act): SiLU()
      )
      (1): Conv(
        (conv): Conv2d(192, 192, kernel_size=(3, 3), stride=(1, 1), padding=(1, 1), bias=False)
        (bn): BatchNorm2d(192, eps=1e-05, momentum=0.1, affine=True, track_running_stats=True)
        (act): SiLU()
      )
      (2): Conv2d(192, 1, kernel_size=(1, 1), stride=(1, 1))
    )
    (2): Sequential(
      (0): Conv(
        (conv): Conv2d(576, 192, kernel_size=(3, 3), stride=(1, 1), padding=(1, 1), bias=False)
        (bn): BatchNorm2d(192, eps=1e-05, momentum=0.1, affine=True, track_running_stats=True)
        (act): SiLU()
      )
      (1): Conv(
        (conv): Conv2d(192, 192, kernel_size=(3, 3), stride=(1, 1), padding=(1, 1), bias=False)
        (bn): BatchNorm2d(192, eps=1e-05, momentum=0.1, affine=True, track_running_stats=True)
        (act): SiLU()
      )
      (2): Conv2d(192, 1, kernel_size=(1, 1), stride=(1, 1))
    )
  )
  (dfl): DFL(
    (conv): Conv2d(16, 1, kernel_size=(1, 1), stride=(1, 1), bias=False)
  )
)
Layer 22 is GradReversal()
Layer 23 is Conv_BN(
  (conv1): Conv2d(192, 64, kernel_size=(3, 3), stride=(1, 1), padding=(1, 1))
  (bn1): BatchNorm2d(64, eps=0.001, momentum=0.03, affine=True, track_running_stats=True)
  (relu): ReLU(inplace=True)
)
Layer 24 is MaxPool(
  (pool): AdaptiveAvgPool2d(output_size=20)
)
Layer 25 is GradReversal()
Layer 26 is Conv_BN(
  (conv1): Conv2d(384, 128, kernel_size=(3, 3), stride=(1, 1), padding=(1, 1))
  (bn1): BatchNorm2d(128, eps=0.001, momentum=0.03, affine=True, track_running_stats=True)
  (relu): ReLU(inplace=True)
)
Layer 27 is MaxPool(
  (pool): AdaptiveAvgPool2d(output_size=20)
)
Layer 28 is Conv_BN(
  (conv1): Conv2d(128, 64, kernel_size=(3, 3), stride=(1, 1), padding=(1, 1))
  (bn1): BatchNorm2d(64, eps=0.001, momentum=0.03, affine=True, track_running_stats=True)
  (relu): ReLU(inplace=True)
)
Layer 29 is Concat()
Layer 30 is Conv_BN(
  (conv1): Conv2d(128, 32, kernel_size=(3, 3), stride=(1, 1), padding=(1, 1))
  (bn1): BatchNorm2d(32, eps=0.001, momentum=0.03, affine=True, track_running_stats=True)
  (relu): ReLU(inplace=True)
)
Layer 31 is MaxPool(
  (pool): AdaptiveAvgPool2d(output_size=10)
)
Layer 32 is GradReversal()
Layer 33 is Conv_BN(
  (conv1): Conv2d(576, 256, kernel_size=(3, 3), stride=(1, 1), padding=(1, 1))
  (bn1): BatchNorm2d(256, eps=0.001, momentum=0.03, affine=True, track_running_stats=True)
  (relu): ReLU(inplace=True)
)
Layer 34 is Conv_BN(
  (conv1): Conv2d(256, 128, kernel_size=(3, 3), stride=(1, 1), padding=(1, 1))
  (bn1): BatchNorm2d(128, eps=0.001, momentum=0.03, affine=True, track_running_stats=True)
  (relu): ReLU(inplace=True)
)
Layer 35 is MaxPool(
  (pool): AdaptiveAvgPool2d(output_size=10)
)
Layer 36 is Conv_BN(
  (conv1): Conv2d(128, 64, kernel_size=(3, 3), stride=(1, 1), padding=(1, 1))
  (bn1): BatchNorm2d(64, eps=0.001, momentum=0.03, affine=True, track_running_stats=True)
  (relu): ReLU(inplace=True)
)
Layer 37 is Conv_BN(
  (conv1): Conv2d(64, 32, kernel_size=(3, 3), stride=(1, 1), padding=(1, 1))
  (bn1): BatchNorm2d(32, eps=0.001, momentum=0.03, affine=True, track_running_stats=True)
  (relu): ReLU(inplace=True)
)
Layer 38 is Concat()
Layer 39 is Conv_BN(
  (conv1): Conv2d(64, 16, kernel_size=(3, 3), stride=(1, 1), padding=(1, 1))
  (bn1): BatchNorm2d(16, eps=0.001, momentum=0.03, affine=True, track_running_stats=True)
  (relu): ReLU(inplace=True)
)
Layer 40 is Conv_BN(
  (conv1): Conv2d(16, 1, kernel_size=(3, 3), stride=(1, 1), padding=(1, 1))
  (bn1): BatchNorm2d(1, eps=0.001, momentum=0.03, affine=True, track_running_stats=True)
  (relu): ReLU(inplace=True)
)
Layer 41 is AdaptiveAvgPooling(
  (pool): AdaptiveAvgPool2d(output_size=1)
  (fc1): Linear(in_features=1, out_features=2, bias=True)
  (flat): Flatten(start_dim=1, end_dim=-1)
)
Layer 42 is Detect(
  (cv2): ModuleList(
    (0): Sequential(
      (0): Conv(
        (conv): Conv2d(192, 64, kernel_size=(3, 3), stride=(1, 1), padding=(1, 1), bias=False)
        (bn): BatchNorm2d(64, eps=0.001, momentum=0.03, affine=True, track_running_stats=True)
        (act): SiLU(inplace=True)
      )
      (1): Conv(
        (conv): Conv2d(64, 64, kernel_size=(3, 3), stride=(1, 1), padding=(1, 1), bias=False)
        (bn): BatchNorm2d(64, eps=0.001, momentum=0.03, affine=True, track_running_stats=True)
        (act): SiLU(inplace=True)
      )
      (2): Conv2d(64, 64, kernel_size=(1, 1), stride=(1, 1))
    )
    (1): Sequential(
      (0): Conv(
        (conv): Conv2d(384, 64, kernel_size=(3, 3), stride=(1, 1), padding=(1, 1), bias=False)
        (bn): BatchNorm2d(64, eps=0.001, momentum=0.03, affine=True, track_running_stats=True)
        (act): SiLU(inplace=True)
      )
      (1): Conv(
        (conv): Conv2d(64, 64, kernel_size=(3, 3), stride=(1, 1), padding=(1, 1), bias=False)
        (bn): BatchNorm2d(64, eps=0.001, momentum=0.03, affine=True, track_running_stats=True)
        (act): SiLU(inplace=True)
      )
      (2): Conv2d(64, 64, kernel_size=(1, 1), stride=(1, 1))
    )
    (2): Sequential(
      (0): Conv(
        (conv): Conv2d(576, 64, kernel_size=(3, 3), stride=(1, 1), padding=(1, 1), bias=False)
        (bn): BatchNorm2d(64, eps=0.001, momentum=0.03, affine=True, track_running_stats=True)
        (act): SiLU(inplace=True)
      )
      (1): Conv(
        (conv): Conv2d(64, 64, kernel_size=(3, 3), stride=(1, 1), padding=(1, 1), bias=False)
        (bn): BatchNorm2d(64, eps=0.001, momentum=0.03, affine=True, track_running_stats=True)
        (act): SiLU(inplace=True)
      )
      (2): Conv2d(64, 64, kernel_size=(1, 1), stride=(1, 1))
    )
  )
  (cv3): ModuleList(
    (0): Sequential(
      (0): Conv(
        (conv): Conv2d(192, 192, kernel_size=(3, 3), stride=(1, 1), padding=(1, 1), bias=False)
        (bn): BatchNorm2d(192, eps=0.001, momentum=0.03, affine=True, track_running_stats=True)
        (act): SiLU(inplace=True)
      )
      (1): Conv(
        (conv): Conv2d(192, 192, kernel_size=(3, 3), stride=(1, 1), padding=(1, 1), bias=False)
        (bn): BatchNorm2d(192, eps=0.001, momentum=0.03, affine=True, track_running_stats=True)
        (act): SiLU(inplace=True)
      )
      (2): Conv2d(192, 1, kernel_size=(1, 1), stride=(1, 1))
    )
    (1): Sequential(
      (0): Conv(
        (conv): Conv2d(384, 192, kernel_size=(3, 3), stride=(1, 1), padding=(1, 1), bias=False)
        (bn): BatchNorm2d(192, eps=0.001, momentum=0.03, affine=True, track_running_stats=True)
        (act): SiLU(inplace=True)
      )
      (1): Conv(
        (conv): Conv2d(192, 192, kernel_size=(3, 3), stride=(1, 1), padding=(1, 1), bias=False)
        (bn): BatchNorm2d(192, eps=0.001, momentum=0.03, affine=True, track_running_stats=True)
        (act): SiLU(inplace=True)
      )
      (2): Conv2d(192, 1, kernel_size=(1, 1), stride=(1, 1))
    )
    (2): Sequential(
      (0): Conv(
        (conv): Conv2d(576, 192, kernel_size=(3, 3), stride=(1, 1), padding=(1, 1), bias=False)
        (bn): BatchNorm2d(192, eps=0.001, momentum=0.03, affine=True, track_running_stats=True)
        (act): SiLU(inplace=True)
      )
      (1): Conv(
        (conv): Conv2d(192, 192, kernel_size=(3, 3), stride=(1, 1), padding=(1, 1), bias=False)
        (bn): BatchNorm2d(192, eps=0.001, momentum=0.03, affine=True, track_running_stats=True)
        (act): SiLU(inplace=True)
      )
      (2): Conv2d(192, 1, kernel_size=(1, 1), stride=(1, 1))
    )
  )
  (dfl): DFL(
    (conv): Conv2d(16, 1, kernel_size=(1, 1), stride=(1, 1), bias=False)
  )
)
YOLOv8m_domainclassifier summary: 352 layers, 28246346 parameters, 28246330 gradients, 127.0 GFLOPs

Transferred 390/547 items from pretrained weights
Transferred 390/547 items from pretrained weights
detect multifeaturesDC
New https://pypi.org/project/ultralytics/8.1.5 available 😃 Update with 'pip install -U ultralytics'
New https://pypi.org/project/ultralytics/8.1.5 available 😃 Update with 'pip install -U ultralytics'
…
Plotting labels to runs/detect/multiDC2_pe_palmyra_10percentbkgd_test2/labels.jpg... 
[34m[1moptimizer:[0m SGD(lr=0.01, momentum=0.937) with parameter groups 87 weight(decay=0.0), 95 weight(decay=0.0005), 104 bias(decay=0.0)
[34m[1moptimizer:[0m SGD(lr=0.01, momentum=0.937) with parameter groups 87 weight(decay=0.0), 95 weight(decay=0.0005), 104 bias(decay=0.0)
200 epochs...
200 epochs...

      Epoch    GPU_mem   box_loss   cls_loss   dfl_loss    da_loss  Instances       Size

      Epoch    GPU_mem   box_loss   cls_loss   dfl_loss    da_loss  Instances       Size
Layer 22 is GradReversal()
Layer 23 is Conv_BN(
  (conv1): Conv2d(192, 64, kernel_size=(3, 3), stride=(1, 1), padding=(1, 1))
  (bn1): BatchNorm2d(64, eps=0.001, momentum=0.03, affine=True, track_running_stats=True)
  (relu): ReLU(inplace=True)
)
Layer 24 is MaxPool(
  (pool): AdaptiveAvgPool2d(output_size=20)
)
Layer 25 is GradReversal()
Layer 26 is Conv_BN(
  (conv1): Conv2d(384, 128, kernel_size=(3, 3), stride=(1, 1), padding=(1, 1))
  (bn1): BatchNorm2d(128, eps=0.001, momentum=0.03, affine=True, track_running_stats=True)
  (relu): ReLU(inplace=True)
)
Layer 27 is MaxPool(
  (pool): AdaptiveAvgPool2d(output_size=20)
)
Layer 28 is Conv_BN(
  (conv1): Conv2d(128, 64, kernel_size=(3, 3), stride=(1, 1), padding=(1, 1))
  (bn1): BatchNorm2d(64, eps=0.001, momentum=0.03, affine=True, track_running_stats=True)
  (relu): ReLU(inplace=True)
)
Layer 29 is Concat()
Layer 30 is Conv_BN(
  (conv1): Conv2d(128, 32, kernel_size=(3, 3), stride=(1, 1), padding=(1, 1))
  (bn1): BatchNorm2d(32, eps=0.001, momentum=0.03, affine=True, track_running_stats=True)
  (relu): ReLU(inplace=True)
)
Layer 31 is MaxPool(
  (pool): AdaptiveAvgPool2d(output_size=10)
)
Layer 32 is GradReversal()
Layer 33 is Conv_BN(
  (conv1): Conv2d(576, 256, kernel_size=(3, 3), stride=(1, 1), padding=(1, 1))
  (bn1): BatchNorm2d(256, eps=0.001, momentum=0.03, affine=True, track_running_stats=True)
  (relu): ReLU(inplace=True)
)
Layer 34 is Conv_BN(
  (conv1): Conv2d(256, 128, kernel_size=(3, 3), stride=(1, 1), padding=(1, 1))
  (bn1): BatchNorm2d(128, eps=0.001, momentum=0.03, affine=True, track_running_stats=True)
  (relu): ReLU(inplace=True)
)
Layer 35 is MaxPool(
  (pool): AdaptiveAvgPool2d(output_size=10)
)
Layer 36 is Conv_BN(
  (conv1): Conv2d(128, 64, kernel_size=(3, 3), stride=(1, 1), padding=(1, 1))
  (bn1): BatchNorm2d(64, eps=0.001, momentum=0.03, affine=True, track_running_stats=True)
  (relu): ReLU(inplace=True)
)
Layer 37 is Conv_BN(
  (conv1): Conv2d(64, 32, kernel_size=(3, 3), stride=(1, 1), padding=(1, 1))
  (bn1): BatchNorm2d(32, eps=0.001, momentum=0.03, affine=True, track_running_stats=True)
  (relu): ReLU(inplace=True)
)
Layer 38 is Concat()
Layer 39 is Conv_BN(
  (conv1): Conv2d(64, 16, kernel_size=(3, 3), stride=(1, 1), padding=(1, 1))
  (bn1): BatchNorm2d(16, eps=0.001, momentum=0.03, affine=True, track_running_stats=True)
  (relu): ReLU(inplace=True)
)
Layer 40 is Conv_BN(
  (conv1): Conv2d(16, 1, kernel_size=(3, 3), stride=(1, 1), padding=(1, 1))
  (bn1): BatchNorm2d(1, eps=0.001, momentum=0.03, affine=True, track_running_stats=True)
  (relu): ReLU(inplace=True)
)
Layer 41 is AdaptiveAvgPooling(
  (pool): AdaptiveAvgPool2d(output_size=1)
  (fc1): Linear(in_features=1, out_features=2, bias=True)
  (flat): Flatten(start_dim=1, end_dim=-1)
)
Layer 42 is Detect(
  (cv2): ModuleList(
    (0): Sequential(
      (0): Conv(
        (conv): Conv2d(192, 64, kernel_size=(3, 3), stride=(1, 1), padding=(1, 1), bias=False)
        (bn): BatchNorm2d(64, eps=0.001, momentum=0.03, affine=True, track_running_stats=True)
        (act): SiLU(inplace=True)
      )
      (1): Conv(
        (conv): Conv2d(64, 64, kernel_size=(3, 3), stride=(1, 1), padding=(1, 1), bias=False)
        (bn): BatchNorm2d(64, eps=0.001, momentum=0.03, affine=True, track_running_stats=True)
        (act): SiLU(inplace=True)
      )
      (2): Conv2d(64, 64, kernel_size=(1, 1), stride=(1, 1))
    )
    (1): Sequential(
      (0): Conv(
        (conv): Conv2d(384, 64, kernel_size=(3, 3), stride=(1, 1), padding=(1, 1), bias=False)
        (bn): BatchNorm2d(64, eps=0.001, momentum=0.03, affine=True, track_running_stats=True)
        (act): SiLU(inplace=True)
      )
      (1): Conv(
        (conv): Conv2d(64, 64, kernel_size=(3, 3), stride=(1, 1), padding=(1, 1), bias=False)
        (bn): BatchNorm2d(64, eps=0.001, momentum=0.03, affine=True, track_running_stats=True)
        (act): SiLU(inplace=True)
      )
      (2): Conv2d(64, 64, kernel_size=(1, 1), stride=(1, 1))
    )
    (2): Sequential(
      (0): Conv(
        (conv): Conv2d(576, 64, kernel_size=(3, 3), stride=(1, 1), padding=(1, 1), bias=False)
        (bn): BatchNorm2d(64, eps=0.001, momentum=0.03, affine=True, track_running_stats=True)
        (act): SiLU(inplace=True)
      )
      (1): Conv(
        (conv): Conv2d(64, 64, kernel_size=(3, 3), stride=(1, 1), padding=(1, 1), bias=False)
        (bn): BatchNorm2d(64, eps=0.001, momentum=0.03, affine=True, track_running_stats=True)
        (act): SiLU(inplace=True)
      )
      (2): Conv2d(64, 64, kernel_size=(1, 1), stride=(1, 1))
    )
  )
  (cv3): ModuleList(
    (0): Sequential(
      (0): Conv(
        (conv): Conv2d(192, 192, kernel_size=(3, 3), stride=(1, 1), padding=(1, 1), bias=False)
        (bn): BatchNorm2d(192, eps=0.001, momentum=0.03, affine=True, track_running_stats=True)
        (act): SiLU(inplace=True)
      )
      (1): Conv(
        (conv): Conv2d(192, 192, kernel_size=(3, 3), stride=(1, 1), padding=(1, 1), bias=False)
        (bn): BatchNorm2d(192, eps=0.001, momentum=0.03, affine=True, track_running_stats=True)
        (act): SiLU(inplace=True)
      )
      (2): Conv2d(192, 1, kernel_size=(1, 1), stride=(1, 1))
    )
    (1): Sequential(
      (0): Conv(
        (conv): Conv2d(384, 192, kernel_size=(3, 3), stride=(1, 1), padding=(1, 1), bias=False)
        (bn): BatchNorm2d(192, eps=0.001, momentum=0.03, affine=True, track_running_stats=True)
        (act): SiLU(inplace=True)
      )
      (1): Conv(
        (conv): Conv2d(192, 192, kernel_size=(3, 3), stride=(1, 1), padding=(1, 1), bias=False)
        (bn): BatchNorm2d(192, eps=0.001, momentum=0.03, affine=True, track_running_stats=True)
        (act): SiLU(inplace=True)
      )
      (2): Conv2d(192, 1, kernel_size=(1, 1), stride=(1, 1))
    )
    (2): Sequential(
      (0): Conv(
        (conv): Conv2d(576, 192, kernel_size=(3, 3), stride=(1, 1), padding=(1, 1), bias=False)
        (bn): BatchNorm2d(192, eps=0.001, momentum=0.03, affine=True, track_running_stats=True)
        (act): SiLU(inplace=True)
      )
      (1): Conv(
        (conv): Conv2d(192, 192, kernel_size=(3, 3), stride=(1, 1), padding=(1, 1), bias=False)
        (bn): BatchNorm2d(192, eps=0.001, momentum=0.03, affine=True, track_running_stats=True)
        (act): SiLU(inplace=True)
      )
      (2): Conv2d(192, 1, kernel_size=(1, 1), stride=(1, 1))
    )
  )
  (dfl): DFL(
    (conv): Conv2d(16, 1, kernel_size=(1, 1), stride=(1, 1), bias=False)
  )
)
Layer 22 is GradReversal()
Layer 23 is Conv_BN(
  (conv1): Conv2d(192, 64, kernel_size=(3, 3), stride=(1, 1), padding=(1, 1))
  (bn1): BatchNorm2d(64, eps=0.001, momentum=0.03, affine=True, track_running_stats=True)
  (relu): ReLU(inplace=True)
)
Layer 24 is MaxPool(
  (pool): AdaptiveAvgPool2d(output_size=20)
)
Layer 25 is GradReversal()
Layer 26 is Conv_BN(
  (conv1): Conv2d(384, 128, kernel_size=(3, 3), stride=(1, 1), padding=(1, 1))
  (bn1): BatchNorm2d(128, eps=0.001, momentum=0.03, affine=True, track_running_stats=True)
  (relu): ReLU(inplace=True)
)
Layer 27 is MaxPool(
  (pool): AdaptiveAvgPool2d(output_size=20)
)
Layer 28 is Conv_BN(
  (conv1): Conv2d(128, 64, kernel_size=(3, 3), stride=(1, 1), padding=(1, 1))
  (bn1): BatchNorm2d(64, eps=0.001, momentum=0.03, affine=True, track_running_stats=True)
  (relu): ReLU(inplace=True)
)
Layer 29 is Concat()
Layer 30 is Conv_BN(
  (conv1): Conv2d(128, 32, kernel_size=(3, 3), stride=(1, 1), padding=(1, 1))
  (bn1): BatchNorm2d(32, eps=0.001, momentum=0.03, affine=True, track_running_stats=True)
  (relu): ReLU(inplace=True)
)
Layer 31 is MaxPool(
  (pool): AdaptiveAvgPool2d(output_size=10)
)
Layer 32 is GradReversal()
Layer 33 is Conv_BN(
  (conv1): Conv2d(576, 256, kernel_size=(3, 3), stride=(1, 1), padding=(1, 1))
  (bn1): BatchNorm2d(256, eps=0.001, momentum=0.03, affine=True, track_running_stats=True)
  (relu): ReLU(inplace=True)
)
Layer 34 is Conv_BN(
  (conv1): Conv2d(256, 128, kernel_size=(3, 3), stride=(1, 1), padding=(1, 1))
  (bn1): BatchNorm2d(128, eps=0.001, momentum=0.03, affine=True, track_running_stats=True)
  (relu): ReLU(inplace=True)
)
Layer 35 is MaxPool(
  (pool): AdaptiveAvgPool2d(output_size=10)
)
Layer 36 is Conv_BN(
  (conv1): Conv2d(128, 64, kernel_size=(3, 3), stride=(1, 1), padding=(1, 1))
  (bn1): BatchNorm2d(64, eps=0.001, momentum=0.03, affine=True, track_running_stats=True)
  (relu): ReLU(inplace=True)
)
Layer 37 is Conv_BN(
  (conv1): Conv2d(64, 32, kernel_size=(3, 3), stride=(1, 1), padding=(1, 1))
  (bn1): BatchNorm2d(32, eps=0.001, momentum=0.03, affine=True, track_running_stats=True)
  (relu): ReLU(inplace=True)
)
Layer 38 is Concat()
Layer 39 is Conv_BN(
  (conv1): Conv2d(64, 16, kernel_size=(3, 3), stride=(1, 1), padding=(1, 1))
  (bn1): BatchNorm2d(16, eps=0.001, momentum=0.03, affine=True, track_running_stats=True)
  (relu): ReLU(inplace=True)
)
Layer 40 is Conv_BN(
  (conv1): Conv2d(16, 1, kernel_size=(3, 3), stride=(1, 1), padding=(1, 1))
  (bn1): BatchNorm2d(1, eps=0.001, momentum=0.03, affine=True, track_running_stats=True)
  (relu): ReLU(inplace=True)
)
Layer 41 is AdaptiveAvgPooling(
  (pool): AdaptiveAvgPool2d(output_size=1)
  (fc1): Linear(in_features=1, out_features=2, bias=True)
  (flat): Flatten(start_dim=1, end_dim=-1)
)
Layer 42 is Detect(
  (cv2): ModuleList(
    (0): Sequential(
      (0): Conv(
        (conv): Conv2d(192, 64, kernel_size=(3, 3), stride=(1, 1), padding=(1, 1), bias=False)
        (bn): BatchNorm2d(64, eps=0.001, momentum=0.03, affine=True, track_running_stats=True)
        (act): SiLU(inplace=True)
      )
      (1): Conv(
        (conv): Conv2d(64, 64, kernel_size=(3, 3), stride=(1, 1), padding=(1, 1), bias=False)
        (bn): BatchNorm2d(64, eps=0.001, momentum=0.03, affine=True, track_running_stats=True)
        (act): SiLU(inplace=True)
      )
      (2): Conv2d(64, 64, kernel_size=(1, 1), stride=(1, 1))
    )
    (1): Sequential(
      (0): Conv(
        (conv): Conv2d(384, 64, kernel_size=(3, 3), stride=(1, 1), padding=(1, 1), bias=False)
        (bn): BatchNorm2d(64, eps=0.001, momentum=0.03, affine=True, track_running_stats=True)
        (act): SiLU(inplace=True)
      )
      (1): Conv(
        (conv): Conv2d(64, 64, kernel_size=(3, 3), stride=(1, 1), padding=(1, 1), bias=False)
        (bn): BatchNorm2d(64, eps=0.001, momentum=0.03, affine=True, track_running_stats=True)
        (act): SiLU(inplace=True)
      )
      (2): Conv2d(64, 64, kernel_size=(1, 1), stride=(1, 1))
    )
    (2): Sequential(
      (0): Conv(
        (conv): Conv2d(576, 64, kernel_size=(3, 3), stride=(1, 1), padding=(1, 1), bias=False)
        (bn): BatchNorm2d(64, eps=0.001, momentum=0.03, affine=True, track_running_stats=True)
        (act): SiLU(inplace=True)
      )
      (1): Conv(
        (conv): Conv2d(64, 64, kernel_size=(3, 3), stride=(1, 1), padding=(1, 1), bias=False)
        (bn): BatchNorm2d(64, eps=0.001, momentum=0.03, affine=True, track_running_stats=True)
        (act): SiLU(inplace=True)
      )
      (2): Conv2d(64, 64, kernel_size=(1, 1), stride=(1, 1))
    )
  )
  (cv3): ModuleList(
    (0): Sequential(
      (0): Conv(
        (conv): Conv2d(192, 192, kernel_size=(3, 3), stride=(1, 1), padding=(1, 1), bias=False)
        (bn): BatchNorm2d(192, eps=0.001, momentum=0.03, affine=True, track_running_stats=True)
        (act): SiLU(inplace=True)
      )
      (1): Conv(
        (conv): Conv2d(192, 192, kernel_size=(3, 3), stride=(1, 1), padding=(1, 1), bias=False)
        (bn): BatchNorm2d(192, eps=0.001, momentum=0.03, affine=True, track_running_stats=True)
        (act): SiLU(inplace=True)
      )
      (2): Conv2d(192, 1, kernel_size=(1, 1), stride=(1, 1))
    )
    (1): Sequential(
      (0): Conv(
        (conv): Conv2d(384, 192, kernel_size=(3, 3), stride=(1, 1), padding=(1, 1), bias=False)
        (bn): BatchNorm2d(192, eps=0.001, momentum=0.03, affine=True, track_running_stats=True)
        (act): SiLU(inplace=True)
      )
      (1): Conv(
        (conv): Conv2d(192, 192, kernel_size=(3, 3), stride=(1, 1), padding=(1, 1), bias=False)
        (bn): BatchNorm2d(192, eps=0.001, momentum=0.03, affine=True, track_running_stats=True)
        (act): SiLU(inplace=True)
      )
      (2): Conv2d(192, 1, kernel_size=(1, 1), stride=(1, 1))
    )
    (2): Sequential(
      (0): Conv(
        (conv): Conv2d(576, 192, kernel_size=(3, 3), stride=(1, 1), padding=(1, 1), bias=False)
        (bn): BatchNorm2d(192, eps=0.001, momentum=0.03, affine=True, track_running_stats=True)
        (act): SiLU(inplace=True)
      )
      (1): Conv(
        (conv): Conv2d(192, 192, kernel_size=(3, 3), stride=(1, 1), padding=(1, 1), bias=False)
        (bn): BatchNorm2d(192, eps=0.001, momentum=0.03, affine=True, track_running_stats=True)
        (act): SiLU(inplace=True)
      )
      (2): Conv2d(192, 1, kernel_size=(1, 1), stride=(1, 1))
    )
  )
  (dfl): DFL(
    (conv): Conv2d(16, 1, kernel_size=(1, 1), stride=(1, 1), bias=False)
  )
)
Layer 22 is GradReversal()
Layer 23 is Conv_BN(
  (conv1): Conv2d(192, 64, kernel_size=(3, 3), stride=(1, 1), padding=(1, 1))
  (bn1): BatchNorm2d(64, eps=0.001, momentum=0.03, affine=True, track_running_stats=True)
  (relu): ReLU(inplace=True)
)
Layer 24 is MaxPool(
  (pool): AdaptiveAvgPool2d(output_size=20)
)
Layer 25 is GradReversal()
Layer 26 is Conv_BN(
  (conv1): Conv2d(384, 128, kernel_size=(3, 3), stride=(1, 1), padding=(1, 1))
  (bn1): BatchNorm2d(128, eps=0.001, momentum=0.03, affine=True, track_running_stats=True)
  (relu): ReLU(inplace=True)
)
Layer 27 is MaxPool(
  (pool): AdaptiveAvgPool2d(output_size=20)
)
Layer 28 is Conv_BN(
  (conv1): Conv2d(128, 64, kernel_size=(3, 3), stride=(1, 1), padding=(1, 1))
  (bn1): BatchNorm2d(64, eps=0.001, momentum=0.03, affine=True, track_running_stats=True)
  (relu): ReLU(inplace=True)
)
Layer 29 is Concat()
Layer 30 is Conv_BN(
  (conv1): Conv2d(128, 32, kernel_size=(3, 3), stride=(1, 1), padding=(1, 1))
  (bn1): BatchNorm2d(32, eps=0.001, momentum=0.03, affine=True, track_running_stats=True)
  (relu): ReLU(inplace=True)
)
Layer 31 is MaxPool(
  (pool): AdaptiveAvgPool2d(output_size=10)
)
Layer 32 is GradReversal()
Layer 33 is Conv_BN(
  (conv1): Conv2d(576, 256, kernel_size=(3, 3), stride=(1, 1), padding=(1, 1))
  (bn1): BatchNorm2d(256, eps=0.001, momentum=0.03, affine=True, track_running_stats=True)
  (relu): ReLU(inplace=True)
)
Layer 34 is Conv_BN(
  (conv1): Conv2d(256, 128, kernel_size=(3, 3), stride=(1, 1), padding=(1, 1))
  (bn1): BatchNorm2d(128, eps=0.001, momentum=0.03, affine=True, track_running_stats=True)
  (relu): ReLU(inplace=True)
)
Layer 35 is MaxPool(
  (pool): AdaptiveAvgPool2d(output_size=10)
)
Layer 36 is Conv_BN(
  (conv1): Conv2d(128, 64, kernel_size=(3, 3), stride=(1, 1), padding=(1, 1))
  (bn1): BatchNorm2d(64, eps=0.001, momentum=0.03, affine=True, track_running_stats=True)
  (relu): ReLU(inplace=True)
)
Layer 37 is Conv_BN(
  (conv1): Conv2d(64, 32, kernel_size=(3, 3), stride=(1, 1), padding=(1, 1))
  (bn1): BatchNorm2d(32, eps=0.001, momentum=0.03, affine=True, track_running_stats=True)
  (relu): ReLU(inplace=True)
)
Layer 38 is Concat()
Layer 39 is Conv_BN(
  (conv1): Conv2d(64, 16, kernel_size=(3, 3), stride=(1, 1), padding=(1, 1))
  (bn1): BatchNorm2d(16, eps=0.001, momentum=0.03, affine=True, track_running_stats=True)
  (relu): ReLU(inplace=True)
)
Layer 40 is Conv_BN(
  (conv1): Conv2d(16, 1, kernel_size=(3, 3), stride=(1, 1), padding=(1, 1))
  (bn1): BatchNorm2d(1, eps=0.001, momentum=0.03, affine=True, track_running_stats=True)
  (relu): ReLU(inplace=True)
)
Layer 41 is AdaptiveAvgPooling(
  (pool): AdaptiveAvgPool2d(output_size=1)
  (fc1): Linear(in_features=1, out_features=2, bias=True)
  (flat): Flatten(start_dim=1, end_dim=-1)
)
Layer 42 is Detect(
  (cv2): ModuleList(
    (0): Sequential(
      (0): Conv(
        (conv): Conv2d(192, 64, kernel_size=(3, 3), stride=(1, 1), padding=(1, 1), bias=False)
        (bn): BatchNorm2d(64, eps=0.001, momentum=0.03, affine=True, track_running_stats=True)
        (act): SiLU(inplace=True)
      )
      (1): Conv(
        (conv): Conv2d(64, 64, kernel_size=(3, 3), stride=(1, 1), padding=(1, 1), bias=False)
        (bn): BatchNorm2d(64, eps=0.001, momentum=0.03, affine=True, track_running_stats=True)
        (act): SiLU(inplace=True)
      )
      (2): Conv2d(64, 64, kernel_size=(1, 1), stride=(1, 1))
    )
    (1): Sequential(
      (0): Conv(
        (conv): Conv2d(384, 64, kernel_size=(3, 3), stride=(1, 1), padding=(1, 1), bias=False)
        (bn): BatchNorm2d(64, eps=0.001, momentum=0.03, affine=True, track_running_stats=True)
        (act): SiLU(inplace=True)
      )
      (1): Conv(
        (conv): Conv2d(64, 64, kernel_size=(3, 3), stride=(1, 1), padding=(1, 1), bias=False)
        (bn): BatchNorm2d(64, eps=0.001, momentum=0.03, affine=True, track_running_stats=True)
        (act): SiLU(inplace=True)
      )
      (2): Conv2d(64, 64, kernel_size=(1, 1), stride=(1, 1))
    )
    (2): Sequential(
      (0): Conv(
        (conv): Conv2d(576, 64, kernel_size=(3, 3), stride=(1, 1), padding=(1, 1), bias=False)
        (bn): BatchNorm2d(64, eps=0.001, momentum=0.03, affine=True, track_running_stats=True)
        (act): SiLU(inplace=True)
      )
      (1): Conv(
        (conv): Conv2d(64, 64, kernel_size=(3, 3), stride=(1, 1), padding=(1, 1), bias=False)
        (bn): BatchNorm2d(64, eps=0.001, momentum=0.03, affine=True, track_running_stats=True)
        (act): SiLU(inplace=True)
      )
      (2): Conv2d(64, 64, kernel_size=(1, 1), stride=(1, 1))
    )
  )
  (cv3): ModuleList(
    (0): Sequential(
      (0): Conv(
        (conv): Conv2d(192, 192, kernel_size=(3, 3), stride=(1, 1), padding=(1, 1), bias=False)
        (bn): BatchNorm2d(192, eps=0.001, momentum=0.03, affine=True, track_running_stats=True)
        (act): SiLU(inplace=True)
      )
      (1): Conv(
        (conv): Conv2d(192, 192, kernel_size=(3, 3), stride=(1, 1), padding=(1, 1), bias=False)
        (bn): BatchNorm2d(192, eps=0.001, momentum=0.03, affine=True, track_running_stats=True)
        (act): SiLU(inplace=True)
      )
      (2): Conv2d(192, 1, kernel_size=(1, 1), stride=(1, 1))
    )
    (1): Sequential(
      (0): Conv(
        (conv): Conv2d(384, 192, kernel_size=(3, 3), stride=(1, 1), padding=(1, 1), bias=False)
        (bn): BatchNorm2d(192, eps=0.001, momentum=0.03, affine=True, track_running_stats=True)
        (act): SiLU(inplace=True)
      )
      (1): Conv(
        (conv): Conv2d(192, 192, kernel_size=(3, 3), stride=(1, 1), padding=(1, 1), bias=False)
        (bn): BatchNorm2d(192, eps=0.001, momentum=0.03, affine=True, track_running_stats=True)
        (act): SiLU(inplace=True)
      )
      (2): Conv2d(192, 1, kernel_size=(1, 1), stride=(1, 1))
    )
    (2): Sequential(
      (0): Conv(
        (conv): Conv2d(576, 192, kernel_size=(3, 3), stride=(1, 1), padding=(1, 1), bias=False)
        (bn): BatchNorm2d(192, eps=0.001, momentum=0.03, affine=True, track_running_stats=True)
        (act): SiLU(inplace=True)
      )
      (1): Conv(
        (conv): Conv2d(192, 192, kernel_size=(3, 3), stride=(1, 1), padding=(1, 1), bias=False)
        (bn): BatchNorm2d(192, eps=0.001, momentum=0.03, affine=True, track_running_stats=True)
        (act): SiLU(inplace=True)
      )
      (2): Conv2d(192, 1, kernel_size=(1, 1), stride=(1, 1))
    )
  )
  (dfl): DFL(
    (conv): Conv2d(16, 1, kernel_size=(1, 1), stride=(1, 1), bias=False)
  )
)
Layer 22 is GradReversal()
Layer 23 is Conv_BN(
  (conv1): Conv2d(192, 64, kernel_size=(3, 3), stride=(1, 1), padding=(1, 1))
  (bn1): BatchNorm2d(64, eps=0.001, momentum=0.03, affine=True, track_running_stats=True)
  (relu): ReLU(inplace=True)
)
Layer 24 is MaxPool(
  (pool): AdaptiveAvgPool2d(output_size=20)
)
Layer 25 is GradReversal()
Layer 26 is Conv_BN(
  (conv1): Conv2d(384, 128, kernel_size=(3, 3), stride=(1, 1), padding=(1, 1))
  (bn1): BatchNorm2d(128, eps=0.001, momentum=0.03, affine=True, track_running_stats=True)
  (relu): ReLU(inplace=True)
)
Layer 27 is MaxPool(
  (pool): AdaptiveAvgPool2d(output_size=20)
)
Layer 28 is Conv_BN(
  (conv1): Conv2d(128, 64, kernel_size=(3, 3), stride=(1, 1), padding=(1, 1))
  (bn1): BatchNorm2d(64, eps=0.001, momentum=0.03, affine=True, track_running_stats=True)
  (relu): ReLU(inplace=True)
)
Layer 29 is Concat()
Layer 30 is Conv_BN(
  (conv1): Conv2d(128, 32, kernel_size=(3, 3), stride=(1, 1), padding=(1, 1))
  (bn1): BatchNorm2d(32, eps=0.001, momentum=0.03, affine=True, track_running_stats=True)
  (relu): ReLU(inplace=True)
)
Layer 31 is MaxPool(
  (pool): AdaptiveAvgPool2d(output_size=10)
)
Layer 32 is GradReversal()
Layer 33 is Conv_BN(
  (conv1): Conv2d(576, 256, kernel_size=(3, 3), stride=(1, 1), padding=(1, 1))
  (bn1): BatchNorm2d(256, eps=0.001, momentum=0.03, affine=True, track_running_stats=True)
  (relu): ReLU(inplace=True)
)
Layer 34 is Conv_BN(
  (conv1): Conv2d(256, 128, kernel_size=(3, 3), stride=(1, 1), padding=(1, 1))
  (bn1): BatchNorm2d(128, eps=0.001, momentum=0.03, affine=True, track_running_stats=True)
  (relu): ReLU(inplace=True)
)
Layer 35 is MaxPool(
  (pool): AdaptiveAvgPool2d(output_size=10)
)
Layer 36 is Conv_BN(
  (conv1): Conv2d(128, 64, kernel_size=(3, 3), stride=(1, 1), padding=(1, 1))
  (bn1): BatchNorm2d(64, eps=0.001, momentum=0.03, affine=True, track_running_stats=True)
  (relu): ReLU(inplace=True)
)
Layer 37 is Conv_BN(
  (conv1): Conv2d(64, 32, kernel_size=(3, 3), stride=(1, 1), padding=(1, 1))
  (bn1): BatchNorm2d(32, eps=0.001, momentum=0.03, affine=True, track_running_stats=True)
  (relu): ReLU(inplace=True)
)
Layer 38 is Concat()
Layer 39 is Conv_BN(
  (conv1): Conv2d(64, 16, kernel_size=(3, 3), stride=(1, 1), padding=(1, 1))
  (bn1): BatchNorm2d(16, eps=0.001, momentum=0.03, affine=True, track_running_stats=True)
  (relu): ReLU(inplace=True)
)
Layer 40 is Conv_BN(
  (conv1): Conv2d(16, 1, kernel_size=(3, 3), stride=(1, 1), padding=(1, 1))
  (bn1): BatchNorm2d(1, eps=0.001, momentum=0.03, affine=True, track_running_stats=True)
  (relu): ReLU(inplace=True)
)
Layer 41 is AdaptiveAvgPooling(
  (pool): AdaptiveAvgPool2d(output_size=1)
  (fc1): Linear(in_features=1, out_features=2, bias=True)
  (flat): Flatten(start_dim=1, end_dim=-1)
)
Layer 42 is Detect(
  (cv2): ModuleList(
    (0): Sequential(
      (0): Conv(
        (conv): Conv2d(192, 64, kernel_size=(3, 3), stride=(1, 1), padding=(1, 1), bias=False)
        (bn): BatchNorm2d(64, eps=0.001, momentum=0.03, affine=True, track_running_stats=True)
        (act): SiLU(inplace=True)
      )
      (1): Conv(
        (conv): Conv2d(64, 64, kernel_size=(3, 3), stride=(1, 1), padding=(1, 1), bias=False)
        (bn): BatchNorm2d(64, eps=0.001, momentum=0.03, affine=True, track_running_stats=True)
        (act): SiLU(inplace=True)
      )
      (2): Conv2d(64, 64, kernel_size=(1, 1), stride=(1, 1))
    )
    (1): Sequential(
      (0): Conv(
        (conv): Conv2d(384, 64, kernel_size=(3, 3), stride=(1, 1), padding=(1, 1), bias=False)
        (bn): BatchNorm2d(64, eps=0.001, momentum=0.03, affine=True, track_running_stats=True)
        (act): SiLU(inplace=True)
      )
      (1): Conv(
        (conv): Conv2d(64, 64, kernel_size=(3, 3), stride=(1, 1), padding=(1, 1), bias=False)
        (bn): BatchNorm2d(64, eps=0.001, momentum=0.03, affine=True, track_running_stats=True)
        (act): SiLU(inplace=True)
      )
      (2): Conv2d(64, 64, kernel_size=(1, 1), stride=(1, 1))
    )
    (2): Sequential(
      (0): Conv(
        (conv): Conv2d(576, 64, kernel_size=(3, 3), stride=(1, 1), padding=(1, 1), bias=False)
        (bn): BatchNorm2d(64, eps=0.001, momentum=0.03, affine=True, track_running_stats=True)
        (act): SiLU(inplace=True)
      )
      (1): Conv(
        (conv): Conv2d(64, 64, kernel_size=(3, 3), stride=(1, 1), padding=(1, 1), bias=False)
        (bn): BatchNorm2d(64, eps=0.001, momentum=0.03, affine=True, track_running_stats=True)
        (act): SiLU(inplace=True)
      )
      (2): Conv2d(64, 64, kernel_size=(1, 1), stride=(1, 1))
    )
  )
  (cv3): ModuleList(
    (0): Sequential(
      (0): Conv(
        (conv): Conv2d(192, 192, kernel_size=(3, 3), stride=(1, 1), padding=(1, 1), bias=False)
        (bn): BatchNorm2d(192, eps=0.001, momentum=0.03, affine=True, track_running_stats=True)
        (act): SiLU(inplace=True)
      )
      (1): Conv(
        (conv): Conv2d(192, 192, kernel_size=(3, 3), stride=(1, 1), padding=(1, 1), bias=False)
        (bn): BatchNorm2d(192, eps=0.001, momentum=0.03, affine=True, track_running_stats=True)
        (act): SiLU(inplace=True)
      )
      (2): Conv2d(192, 1, kernel_size=(1, 1), stride=(1, 1))
    )
    (1): Sequential(
      (0): Conv(
        (conv): Conv2d(384, 192, kernel_size=(3, 3), stride=(1, 1), padding=(1, 1), bias=False)
        (bn): BatchNorm2d(192, eps=0.001, momentum=0.03, affine=True, track_running_stats=True)
        (act): SiLU(inplace=True)
      )
      (1): Conv(
        (conv): Conv2d(192, 192, kernel_size=(3, 3), stride=(1, 1), padding=(1, 1), bias=False)
        (bn): BatchNorm2d(192, eps=0.001, momentum=0.03, affine=True, track_running_stats=True)
        (act): SiLU(inplace=True)
      )
      (2): Conv2d(192, 1, kernel_size=(1, 1), stride=(1, 1))
    )
    (2): Sequential(
      (0): Conv(
        (conv): Conv2d(576, 192, kernel_size=(3, 3), stride=(1, 1), padding=(1, 1), bias=False)
        (bn): BatchNorm2d(192, eps=0.001, momentum=0.03, affine=True, track_running_stats=True)
        (act): SiLU(inplace=True)
      )
      (1): Conv(
        (conv): Conv2d(192, 192, kernel_size=(3, 3), stride=(1, 1), padding=(1, 1), bias=False)
        (bn): BatchNorm2d(192, eps=0.001, momentum=0.03, affine=True, track_running_stats=True)
        (act): SiLU(inplace=True)
      )
      (2): Conv2d(192, 1, kernel_size=(1, 1), stride=(1, 1))
    )
  )
  (dfl): DFL(
    (conv): Conv2d(16, 1, kernel_size=(1, 1), stride=(1, 1), bias=False)
  )
)
Layer 22 is GradReversal()
Layer 23 is Conv_BN(
  (conv1): Conv2d(192, 64, kernel_size=(3, 3), stride=(1, 1), padding=(1, 1))
  (bn1): BatchNorm2d(64, eps=0.001, momentum=0.03, affine=True, track_running_stats=True)
  (relu): ReLU(inplace=True)
)
Layer 24 is MaxPool(
  (pool): AdaptiveAvgPool2d(output_size=20)
)
Layer 25 is GradReversal()
Layer 26 is Conv_BN(
  (conv1): Conv2d(384, 128, kernel_size=(3, 3), stride=(1, 1), padding=(1, 1))
  (bn1): BatchNorm2d(128, eps=0.001, momentum=0.03, affine=True, track_running_stats=True)
  (relu): ReLU(inplace=True)
)
Layer 27 is MaxPool(
  (pool): AdaptiveAvgPool2d(output_size=20)
)
Layer 28 is Conv_BN(
  (conv1): Conv2d(128, 64, kernel_size=(3, 3), stride=(1, 1), padding=(1, 1))
  (bn1): BatchNorm2d(64, eps=0.001, momentum=0.03, affine=True, track_running_stats=True)
  (relu): ReLU(inplace=True)
)
Layer 29 is Concat()
Layer 30 is Conv_BN(
  (conv1): Conv2d(128, 32, kernel_size=(3, 3), stride=(1, 1), padding=(1, 1))
  (bn1): BatchNorm2d(32, eps=0.001, momentum=0.03, affine=True, track_running_stats=True)
  (relu): ReLU(inplace=True)
)
Layer 31 is MaxPool(
  (pool): AdaptiveAvgPool2d(output_size=10)
)
Layer 32 is GradReversal()
Layer 33 is Conv_BN(
  (conv1): Conv2d(576, 256, kernel_size=(3, 3), stride=(1, 1), padding=(1, 1))
  (bn1): BatchNorm2d(256, eps=0.001, momentum=0.03, affine=True, track_running_stats=True)
  (relu): ReLU(inplace=True)
)
Layer 34 is Conv_BN(
  (conv1): Conv2d(256, 128, kernel_size=(3, 3), stride=(1, 1), padding=(1, 1))
  (bn1): BatchNorm2d(128, eps=0.001, momentum=0.03, affine=True, track_running_stats=True)
  (relu): ReLU(inplace=True)
)
Layer 35 is MaxPool(
  (pool): AdaptiveAvgPool2d(output_size=10)
)
Layer 36 is Conv_BN(
  (conv1): Conv2d(128, 64, kernel_size=(3, 3), stride=(1, 1), padding=(1, 1))
  (bn1): BatchNorm2d(64, eps=0.001, momentum=0.03, affine=True, track_running_stats=True)
  (relu): ReLU(inplace=True)
)
Layer 37 is Conv_BN(
  (conv1): Conv2d(64, 32, kernel_size=(3, 3), stride=(1, 1), padding=(1, 1))
  (bn1): BatchNorm2d(32, eps=0.001, momentum=0.03, affine=True, track_running_stats=True)
  (relu): ReLU(inplace=True)
)
Layer 38 is Concat()
Layer 39 is Conv_BN(
  (conv1): Conv2d(64, 16, kernel_size=(3, 3), stride=(1, 1), padding=(1, 1))
  (bn1): BatchNorm2d(16, eps=0.001, momentum=0.03, affine=True, track_running_stats=True)
  (relu): ReLU(inplace=True)
)
Layer 40 is Conv_BN(
  (conv1): Conv2d(16, 1, kernel_size=(3, 3), stride=(1, 1), padding=(1, 1))
  (bn1): BatchNorm2d(1, eps=0.001, momentum=0.03, affine=True, track_running_stats=True)
  (relu): ReLU(inplace=True)
)
Layer 41 is AdaptiveAvgPooling(
  (pool): AdaptiveAvgPool2d(output_size=1)
  (fc1): Linear(in_features=1, out_features=2, bias=True)
  (flat): Flatten(start_dim=1, end_dim=-1)
)
Layer 42 is Detect(
  (cv2): ModuleList(
    (0): Sequential(
      (0): Conv(
        (conv): Conv2d(192, 64, kernel_size=(3, 3), stride=(1, 1), padding=(1, 1), bias=False)
        (bn): BatchNorm2d(64, eps=0.001, momentum=0.03, affine=True, track_running_stats=True)
        (act): SiLU(inplace=True)
      )
      (1): Conv(
        (conv): Conv2d(64, 64, kernel_size=(3, 3), stride=(1, 1), padding=(1, 1), bias=False)
        (bn): BatchNorm2d(64, eps=0.001, momentum=0.03, affine=True, track_running_stats=True)
        (act): SiLU(inplace=True)
      )
      (2): Conv2d(64, 64, kernel_size=(1, 1), stride=(1, 1))
    )
    (1): Sequential(
      (0): Conv(
        (conv): Conv2d(384, 64, kernel_size=(3, 3), stride=(1, 1), padding=(1, 1), bias=False)
        (bn): BatchNorm2d(64, eps=0.001, momentum=0.03, affine=True, track_running_stats=True)
        (act): SiLU(inplace=True)
      )
      (1): Conv(
        (conv): Conv2d(64, 64, kernel_size=(3, 3), stride=(1, 1), padding=(1, 1), bias=False)
        (bn): BatchNorm2d(64, eps=0.001, momentum=0.03, affine=True, track_running_stats=True)
        (act): SiLU(inplace=True)
      )
      (2): Conv2d(64, 64, kernel_size=(1, 1), stride=(1, 1))
    )
    (2): Sequential(
      (0): Conv(
        (conv): Conv2d(576, 64, kernel_size=(3, 3), stride=(1, 1), padding=(1, 1), bias=False)
        (bn): BatchNorm2d(64, eps=0.001, momentum=0.03, affine=True, track_running_stats=True)
        (act): SiLU(inplace=True)
      )
      (1): Conv(
        (conv): Conv2d(64, 64, kernel_size=(3, 3), stride=(1, 1), padding=(1, 1), bias=False)
        (bn): BatchNorm2d(64, eps=0.001, momentum=0.03, affine=True, track_running_stats=True)
        (act): SiLU(inplace=True)
      )
      (2): Conv2d(64, 64, kernel_size=(1, 1), stride=(1, 1))
    )
  )
  (cv3): ModuleList(
    (0): Sequential(
      (0): Conv(
        (conv): Conv2d(192, 192, kernel_size=(3, 3), stride=(1, 1), padding=(1, 1), bias=False)
        (bn): BatchNorm2d(192, eps=0.001, momentum=0.03, affine=True, track_running_stats=True)
        (act): SiLU(inplace=True)
      )
      (1): Conv(
        (conv): Conv2d(192, 192, kernel_size=(3, 3), stride=(1, 1), padding=(1, 1), bias=False)
        (bn): BatchNorm2d(192, eps=0.001, momentum=0.03, affine=True, track_running_stats=True)
        (act): SiLU(inplace=True)
      )
      (2): Conv2d(192, 1, kernel_size=(1, 1), stride=(1, 1))
    )
    (1): Sequential(
      (0): Conv(
        (conv): Conv2d(384, 192, kernel_size=(3, 3), stride=(1, 1), padding=(1, 1), bias=False)
        (bn): BatchNorm2d(192, eps=0.001, momentum=0.03, affine=True, track_running_stats=True)
        (act): SiLU(inplace=True)
      )
      (1): Conv(
        (conv): Conv2d(192, 192, kernel_size=(3, 3), stride=(1, 1), padding=(1, 1), bias=False)
        (bn): BatchNorm2d(192, eps=0.001, momentum=0.03, affine=True, track_running_stats=True)
        (act): SiLU(inplace=True)
      )
      (2): Conv2d(192, 1, kernel_size=(1, 1), stride=(1, 1))
    )
    (2): Sequential(
      (0): Conv(
        (conv): Conv2d(576, 192, kernel_size=(3, 3), stride=(1, 1), padding=(1, 1), bias=False)
        (bn): BatchNorm2d(192, eps=0.001, momentum=0.03, affine=True, track_running_stats=True)
        (act): SiLU(inplace=True)
      )
      (1): Conv(
        (conv): Conv2d(192, 192, kernel_size=(3, 3), stride=(1, 1), padding=(1, 1), bias=False)
        (bn): BatchNorm2d(192, eps=0.001, momentum=0.03, affine=True, track_running_stats=True)
        (act): SiLU(inplace=True)
      )
      (2): Conv2d(192, 1, kernel_size=(1, 1), stride=(1, 1))
    )
  )
  (dfl): DFL(
    (conv): Conv2d(16, 1, kernel_size=(1, 1), stride=(1, 1), bias=False)
  )
)
Layer 22 is GradReversal()
Layer 23 is Conv_BN(
  (conv1): Conv2d(192, 64, kernel_size=(3, 3), stride=(1, 1), padding=(1, 1))
  (bn1): BatchNorm2d(64, eps=0.001, momentum=0.03, affine=True, track_running_stats=True)
  (relu): ReLU(inplace=True)
)
Layer 24 is MaxPool(
  (pool): AdaptiveAvgPool2d(output_size=20)
)
Layer 25 is GradReversal()
Layer 26 is Conv_BN(
  (conv1): Conv2d(384, 128, kernel_size=(3, 3), stride=(1, 1), padding=(1, 1))
  (bn1): BatchNorm2d(128, eps=0.001, momentum=0.03, affine=True, track_running_stats=True)
  (relu): ReLU(inplace=True)
)
Layer 27 is MaxPool(
  (pool): AdaptiveAvgPool2d(output_size=20)
)
Layer 28 is Conv_BN(
  (conv1): Conv2d(128, 64, kernel_size=(3, 3), stride=(1, 1), padding=(1, 1))
  (bn1): BatchNorm2d(64, eps=0.001, momentum=0.03, affine=True, track_running_stats=True)
  (relu): ReLU(inplace=True)
)
Layer 29 is Concat()
Layer 30 is Conv_BN(
  (conv1): Conv2d(128, 32, kernel_size=(3, 3), stride=(1, 1), padding=(1, 1))
  (bn1): BatchNorm2d(32, eps=0.001, momentum=0.03, affine=True, track_running_stats=True)
  (relu): ReLU(inplace=True)
)
Layer 31 is MaxPool(
  (pool): AdaptiveAvgPool2d(output_size=10)
)
Layer 32 is GradReversal()
Layer 33 is Conv_BN(
  (conv1): Conv2d(576, 256, kernel_size=(3, 3), stride=(1, 1), padding=(1, 1))
  (bn1): BatchNorm2d(256, eps=0.001, momentum=0.03, affine=True, track_running_stats=True)
  (relu): ReLU(inplace=True)
)
Layer 34 is Conv_BN(
  (conv1): Conv2d(256, 128, kernel_size=(3, 3), stride=(1, 1), padding=(1, 1))
  (bn1): BatchNorm2d(128, eps=0.001, momentum=0.03, affine=True, track_running_stats=True)
  (relu): ReLU(inplace=True)
)
Layer 35 is MaxPool(
  (pool): AdaptiveAvgPool2d(output_size=10)
)
Layer 36 is Conv_BN(
  (conv1): Conv2d(128, 64, kernel_size=(3, 3), stride=(1, 1), padding=(1, 1))
  (bn1): BatchNorm2d(64, eps=0.001, momentum=0.03, affine=True, track_running_stats=True)
  (relu): ReLU(inplace=True)
)
Layer 37 is Conv_BN(
  (conv1): Conv2d(64, 32, kernel_size=(3, 3), stride=(1, 1), padding=(1, 1))
  (bn1): BatchNorm2d(32, eps=0.001, momentum=0.03, affine=True, track_running_stats=True)
  (relu): ReLU(inplace=True)
)
Layer 38 is Concat()
Layer 39 is Conv_BN(
  (conv1): Conv2d(64, 16, kernel_size=(3, 3), stride=(1, 1), padding=(1, 1))
  (bn1): BatchNorm2d(16, eps=0.001, momentum=0.03, affine=True, track_running_stats=True)
  (relu): ReLU(inplace=True)
)
Layer 40 is Conv_BN(
  (conv1): Conv2d(16, 1, kernel_size=(3, 3), stride=(1, 1), padding=(1, 1))
  (bn1): BatchNorm2d(1, eps=0.001, momentum=0.03, affine=True, track_running_stats=True)
  (relu): ReLU(inplace=True)
)
Layer 41 is AdaptiveAvgPooling(
  (pool): AdaptiveAvgPool2d(output_size=1)
  (fc1): Linear(in_features=1, out_features=2, bias=True)
  (flat): Flatten(start_dim=1, end_dim=-1)
)
Layer 42 is Detect(
  (cv2): ModuleList(
    (0): Sequential(
      (0): Conv(
        (conv): Conv2d(192, 64, kernel_size=(3, 3), stride=(1, 1), padding=(1, 1), bias=False)
        (bn): BatchNorm2d(64, eps=0.001, momentum=0.03, affine=True, track_running_stats=True)
        (act): SiLU(inplace=True)
      )
      (1): Conv(
        (conv): Conv2d(64, 64, kernel_size=(3, 3), stride=(1, 1), padding=(1, 1), bias=False)
        (bn): BatchNorm2d(64, eps=0.001, momentum=0.03, affine=True, track_running_stats=True)
        (act): SiLU(inplace=True)
      )
      (2): Conv2d(64, 64, kernel_size=(1, 1), stride=(1, 1))
    )
    (1): Sequential(
      (0): Conv(
        (conv): Conv2d(384, 64, kernel_size=(3, 3), stride=(1, 1), padding=(1, 1), bias=False)
        (bn): BatchNorm2d(64, eps=0.001, momentum=0.03, affine=True, track_running_stats=True)
        (act): SiLU(inplace=True)
      )
      (1): Conv(
        (conv): Conv2d(64, 64, kernel_size=(3, 3), stride=(1, 1), padding=(1, 1), bias=False)
        (bn): BatchNorm2d(64, eps=0.001, momentum=0.03, affine=True, track_running_stats=True)
        (act): SiLU(inplace=True)
      )
      (2): Conv2d(64, 64, kernel_size=(1, 1), stride=(1, 1))
    )
    (2): Sequential(
      (0): Conv(
        (conv): Conv2d(576, 64, kernel_size=(3, 3), stride=(1, 1), padding=(1, 1), bias=False)
        (bn): BatchNorm2d(64, eps=0.001, momentum=0.03, affine=True, track_running_stats=True)
        (act): SiLU(inplace=True)
      )
      (1): Conv(
        (conv): Conv2d(64, 64, kernel_size=(3, 3), stride=(1, 1), padding=(1, 1), bias=False)
        (bn): BatchNorm2d(64, eps=0.001, momentum=0.03, affine=True, track_running_stats=True)
        (act): SiLU(inplace=True)
      )
      (2): Conv2d(64, 64, kernel_size=(1, 1), stride=(1, 1))
    )
  )
  (cv3): ModuleList(
    (0): Sequential(
      (0): Conv(
        (conv): Conv2d(192, 192, kernel_size=(3, 3), stride=(1, 1), padding=(1, 1), bias=False)
        (bn): BatchNorm2d(192, eps=0.001, momentum=0.03, affine=True, track_running_stats=True)
        (act): SiLU(inplace=True)
      )
      (1): Conv(
        (conv): Conv2d(192, 192, kernel_size=(3, 3), stride=(1, 1), padding=(1, 1), bias=False)
        (bn): BatchNorm2d(192, eps=0.001, momentum=0.03, affine=True, track_running_stats=True)
        (act): SiLU(inplace=True)
      )
      (2): Conv2d(192, 1, kernel_size=(1, 1), stride=(1, 1))
    )
    (1): Sequential(
      (0): Conv(
        (conv): Conv2d(384, 192, kernel_size=(3, 3), stride=(1, 1), padding=(1, 1), bias=False)
        (bn): BatchNorm2d(192, eps=0.001, momentum=0.03, affine=True, track_running_stats=True)
        (act): SiLU(inplace=True)
      )
      (1): Conv(
        (conv): Conv2d(192, 192, kernel_size=(3, 3), stride=(1, 1), padding=(1, 1), bias=False)
        (bn): BatchNorm2d(192, eps=0.001, momentum=0.03, affine=True, track_running_stats=True)
        (act): SiLU(inplace=True)
      )
      (2): Conv2d(192, 1, kernel_size=(1, 1), stride=(1, 1))
    )
    (2): Sequential(
      (0): Conv(
        (conv): Conv2d(576, 192, kernel_size=(3, 3), stride=(1, 1), padding=(1, 1), bias=False)
        (bn): BatchNorm2d(192, eps=0.001, momentum=0.03, affine=True, track_running_stats=True)
        (act): SiLU(inplace=True)
      )
      (1): Conv(
        (conv): Conv2d(192, 192, kernel_size=(3, 3), stride=(1, 1), padding=(1, 1), bias=False)
        (bn): BatchNorm2d(192, eps=0.001, momentum=0.03, affine=True, track_running_stats=True)
        (act): SiLU(inplace=True)
      )
      (2): Conv2d(192, 1, kernel_size=(1, 1), stride=(1, 1))
    )
  )
  (dfl): DFL(
    (conv): Conv2d(16, 1, kernel_size=(1, 1), stride=(1, 1), bias=False)
  )
)
Layer 22 is GradReversal()
Layer 23 is Conv_BN(
  (conv1): Conv2d(192, 64, kernel_size=(3, 3), stride=(1, 1), padding=(1, 1))
  (bn1): BatchNorm2d(64, eps=0.001, momentum=0.03, affine=True, track_running_stats=True)
  (relu): ReLU(inplace=True)
)
Layer 24 is MaxPool(
  (pool): AdaptiveAvgPool2d(output_size=20)
)
Layer 25 is GradReversal()
Layer 26 is Conv_BN(
  (conv1): Conv2d(384, 128, kernel_size=(3, 3), stride=(1, 1), padding=(1, 1))
  (bn1): BatchNorm2d(128, eps=0.001, momentum=0.03, affine=True, track_running_stats=True)
  (relu): ReLU(inplace=True)
)
Layer 27 is MaxPool(
  (pool): AdaptiveAvgPool2d(output_size=20)
)
Layer 28 is Conv_BN(
  (conv1): Conv2d(128, 64, kernel_size=(3, 3), stride=(1, 1), padding=(1, 1))
  (bn1): BatchNorm2d(64, eps=0.001, momentum=0.03, affine=True, track_running_stats=True)
  (relu): ReLU(inplace=True)
)
Layer 29 is Concat()
Layer 30 is Conv_BN(
  (conv1): Conv2d(128, 32, kernel_size=(3, 3), stride=(1, 1), padding=(1, 1))
  (bn1): BatchNorm2d(32, eps=0.001, momentum=0.03, affine=True, track_running_stats=True)
  (relu): ReLU(inplace=True)
)
Layer 31 is MaxPool(
  (pool): AdaptiveAvgPool2d(output_size=10)
)
Layer 32 is GradReversal()
Layer 33 is Conv_BN(
  (conv1): Conv2d(576, 256, kernel_size=(3, 3), stride=(1, 1), padding=(1, 1))
  (bn1): BatchNorm2d(256, eps=0.001, momentum=0.03, affine=True, track_running_stats=True)
  (relu): ReLU(inplace=True)
)
Layer 34 is Conv_BN(
  (conv1): Conv2d(256, 128, kernel_size=(3, 3), stride=(1, 1), padding=(1, 1))
  (bn1): BatchNorm2d(128, eps=0.001, momentum=0.03, affine=True, track_running_stats=True)
  (relu): ReLU(inplace=True)
)
Layer 35 is MaxPool(
  (pool): AdaptiveAvgPool2d(output_size=10)
)
Layer 36 is Conv_BN(
  (conv1): Conv2d(128, 64, kernel_size=(3, 3), stride=(1, 1), padding=(1, 1))
  (bn1): BatchNorm2d(64, eps=0.001, momentum=0.03, affine=True, track_running_stats=True)
  (relu): ReLU(inplace=True)
)
Layer 37 is Conv_BN(
  (conv1): Conv2d(64, 32, kernel_size=(3, 3), stride=(1, 1), padding=(1, 1))
  (bn1): BatchNorm2d(32, eps=0.001, momentum=0.03, affine=True, track_running_stats=True)
  (relu): ReLU(inplace=True)
)
Layer 38 is Concat()
Layer 39 is Conv_BN(
  (conv1): Conv2d(64, 16, kernel_size=(3, 3), stride=(1, 1), padding=(1, 1))
  (bn1): BatchNorm2d(16, eps=0.001, momentum=0.03, affine=True, track_running_stats=True)
  (relu): ReLU(inplace=True)
)
Layer 40 is Conv_BN(
  (conv1): Conv2d(16, 1, kernel_size=(3, 3), stride=(1, 1), padding=(1, 1))
  (bn1): BatchNorm2d(1, eps=0.001, momentum=0.03, affine=True, track_running_stats=True)
  (relu): ReLU(inplace=True)
)
Layer 41 is AdaptiveAvgPooling(
  (pool): AdaptiveAvgPool2d(output_size=1)
  (fc1): Linear(in_features=1, out_features=2, bias=True)
  (flat): Flatten(start_dim=1, end_dim=-1)
)
Layer 42 is Detect(
  (cv2): ModuleList(
    (0): Sequential(
      (0): Conv(
        (conv): Conv2d(192, 64, kernel_size=(3, 3), stride=(1, 1), padding=(1, 1), bias=False)
        (bn): BatchNorm2d(64, eps=0.001, momentum=0.03, affine=True, track_running_stats=True)
        (act): SiLU(inplace=True)
      )
      (1): Conv(
        (conv): Conv2d(64, 64, kernel_size=(3, 3), stride=(1, 1), padding=(1, 1), bias=False)
        (bn): BatchNorm2d(64, eps=0.001, momentum=0.03, affine=True, track_running_stats=True)
        (act): SiLU(inplace=True)
      )
      (2): Conv2d(64, 64, kernel_size=(1, 1), stride=(1, 1))
    )
    (1): Sequential(
      (0): Conv(
        (conv): Conv2d(384, 64, kernel_size=(3, 3), stride=(1, 1), padding=(1, 1), bias=False)
        (bn): BatchNorm2d(64, eps=0.001, momentum=0.03, affine=True, track_running_stats=True)
        (act): SiLU(inplace=True)
      )
      (1): Conv(
        (conv): Conv2d(64, 64, kernel_size=(3, 3), stride=(1, 1), padding=(1, 1), bias=False)
        (bn): BatchNorm2d(64, eps=0.001, momentum=0.03, affine=True, track_running_stats=True)
        (act): SiLU(inplace=True)
      )
      (2): Conv2d(64, 64, kernel_size=(1, 1), stride=(1, 1))
    )
    (2): Sequential(
      (0): Conv(
        (conv): Conv2d(576, 64, kernel_size=(3, 3), stride=(1, 1), padding=(1, 1), bias=False)
        (bn): BatchNorm2d(64, eps=0.001, momentum=0.03, affine=True, track_running_stats=True)
        (act): SiLU(inplace=True)
      )
      (1): Conv(
        (conv): Conv2d(64, 64, kernel_size=(3, 3), stride=(1, 1), padding=(1, 1), bias=False)
        (bn): BatchNorm2d(64, eps=0.001, momentum=0.03, affine=True, track_running_stats=True)
        (act): SiLU(inplace=True)
      )
      (2): Conv2d(64, 64, kernel_size=(1, 1), stride=(1, 1))
    )
  )
  (cv3): ModuleList(
    (0): Sequential(
      (0): Conv(
        (conv): Conv2d(192, 192, kernel_size=(3, 3), stride=(1, 1), padding=(1, 1), bias=False)
        (bn): BatchNorm2d(192, eps=0.001, momentum=0.03, affine=True, track_running_stats=True)
        (act): SiLU(inplace=True)
      )
      (1): Conv(
        (conv): Conv2d(192, 192, kernel_size=(3, 3), stride=(1, 1), padding=(1, 1), bias=False)
        (bn): BatchNorm2d(192, eps=0.001, momentum=0.03, affine=True, track_running_stats=True)
        (act): SiLU(inplace=True)
      )
      (2): Conv2d(192, 1, kernel_size=(1, 1), stride=(1, 1))
    )
    (1): Sequential(
      (0): Conv(
        (conv): Conv2d(384, 192, kernel_size=(3, 3), stride=(1, 1), padding=(1, 1), bias=False)
        (bn): BatchNorm2d(192, eps=0.001, momentum=0.03, affine=True, track_running_stats=True)
        (act): SiLU(inplace=True)
      )
      (1): Conv(
        (conv): Conv2d(192, 192, kernel_size=(3, 3), stride=(1, 1), padding=(1, 1), bias=False)
        (bn): BatchNorm2d(192, eps=0.001, momentum=0.03, affine=True, track_running_stats=True)
        (act): SiLU(inplace=True)
      )
      (2): Conv2d(192, 1, kernel_size=(1, 1), stride=(1, 1))
    )
    (2): Sequential(
      (0): Conv(
        (conv): Conv2d(576, 192, kernel_size=(3, 3), stride=(1, 1), padding=(1, 1), bias=False)
        (bn): BatchNorm2d(192, eps=0.001, momentum=0.03, affine=True, track_running_stats=True)
        (act): SiLU(inplace=True)
      )
      (1): Conv(
        (conv): Conv2d(192, 192, kernel_size=(3, 3), stride=(1, 1), padding=(1, 1), bias=False)
        (bn): BatchNorm2d(192, eps=0.001, momentum=0.03, affine=True, track_running_stats=True)
        (act): SiLU(inplace=True)
      )
      (2): Conv2d(192, 1, kernel_size=(1, 1), stride=(1, 1))
    )
  )
  (dfl): DFL(
    (conv): Conv2d(16, 1, kernel_size=(1, 1), stride=(1, 1), bias=False)
  )
)
Layer 22 is GradReversal()
Layer 23 is Conv_BN(
  (conv1): Conv2d(192, 64, kernel_size=(3, 3), stride=(1, 1), padding=(1, 1))
  (bn1): BatchNorm2d(64, eps=0.001, momentum=0.03, affine=True, track_running_stats=True)
  (relu): ReLU(inplace=True)
)
Layer 24 is MaxPool(
  (pool): AdaptiveAvgPool2d(output_size=20)
)
Layer 25 is GradReversal()
Layer 26 is Conv_BN(
  (conv1): Conv2d(384, 128, kernel_size=(3, 3), stride=(1, 1), padding=(1, 1))
  (bn1): BatchNorm2d(128, eps=0.001, momentum=0.03, affine=True, track_running_stats=True)
  (relu): ReLU(inplace=True)
)
Layer 27 is MaxPool(
  (pool): AdaptiveAvgPool2d(output_size=20)
)
Layer 28 is Conv_BN(
  (conv1): Conv2d(128, 64, kernel_size=(3, 3), stride=(1, 1), padding=(1, 1))
  (bn1): BatchNorm2d(64, eps=0.001, momentum=0.03, affine=True, track_running_stats=True)
  (relu): ReLU(inplace=True)
)
Layer 29 is Concat()
Layer 30 is Conv_BN(
  (conv1): Conv2d(128, 32, kernel_size=(3, 3), stride=(1, 1), padding=(1, 1))
  (bn1): BatchNorm2d(32, eps=0.001, momentum=0.03, affine=True, track_running_stats=True)
  (relu): ReLU(inplace=True)
)
Layer 31 is MaxPool(
  (pool): AdaptiveAvgPool2d(output_size=10)
)
Layer 32 is GradReversal()
Layer 33 is Conv_BN(
  (conv1): Conv2d(576, 256, kernel_size=(3, 3), stride=(1, 1), padding=(1, 1))
  (bn1): BatchNorm2d(256, eps=0.001, momentum=0.03, affine=True, track_running_stats=True)
  (relu): ReLU(inplace=True)
)
Layer 34 is Conv_BN(
  (conv1): Conv2d(256, 128, kernel_size=(3, 3), stride=(1, 1), padding=(1, 1))
  (bn1): BatchNorm2d(128, eps=0.001, momentum=0.03, affine=True, track_running_stats=True)
  (relu): ReLU(inplace=True)
)
Layer 35 is MaxPool(
  (pool): AdaptiveAvgPool2d(output_size=10)
)
Layer 36 is Conv_BN(
  (conv1): Conv2d(128, 64, kernel_size=(3, 3), stride=(1, 1), padding=(1, 1))
  (bn1): BatchNorm2d(64, eps=0.001, momentum=0.03, affine=True, track_running_stats=True)
  (relu): ReLU(inplace=True)
)
Layer 37 is Conv_BN(
  (conv1): Conv2d(64, 32, kernel_size=(3, 3), stride=(1, 1), padding=(1, 1))
  (bn1): BatchNorm2d(32, eps=0.001, momentum=0.03, affine=True, track_running_stats=True)
  (relu): ReLU(inplace=True)
)
Layer 38 is Concat()
Layer 39 is Conv_BN(
  (conv1): Conv2d(64, 16, kernel_size=(3, 3), stride=(1, 1), padding=(1, 1))
  (bn1): BatchNorm2d(16, eps=0.001, momentum=0.03, affine=True, track_running_stats=True)
  (relu): ReLU(inplace=True)
)
Layer 40 is Conv_BN(
  (conv1): Conv2d(16, 1, kernel_size=(3, 3), stride=(1, 1), padding=(1, 1))
  (bn1): BatchNorm2d(1, eps=0.001, momentum=0.03, affine=True, track_running_stats=True)
  (relu): ReLU(inplace=True)
)
Layer 41 is AdaptiveAvgPooling(
  (pool): AdaptiveAvgPool2d(output_size=1)
  (fc1): Linear(in_features=1, out_features=2, bias=True)
  (flat): Flatten(start_dim=1, end_dim=-1)
)
Layer 42 is Detect(
  (cv2): ModuleList(
    (0): Sequential(
      (0): Conv(
        (conv): Conv2d(192, 64, kernel_size=(3, 3), stride=(1, 1), padding=(1, 1), bias=False)
        (bn): BatchNorm2d(64, eps=0.001, momentum=0.03, affine=True, track_running_stats=True)
        (act): SiLU(inplace=True)
      )
      (1): Conv(
        (conv): Conv2d(64, 64, kernel_size=(3, 3), stride=(1, 1), padding=(1, 1), bias=False)
        (bn): BatchNorm2d(64, eps=0.001, momentum=0.03, affine=True, track_running_stats=True)
        (act): SiLU(inplace=True)
      )
      (2): Conv2d(64, 64, kernel_size=(1, 1), stride=(1, 1))
    )
    (1): Sequential(
      (0): Conv(
        (conv): Conv2d(384, 64, kernel_size=(3, 3), stride=(1, 1), padding=(1, 1), bias=False)
        (bn): BatchNorm2d(64, eps=0.001, momentum=0.03, affine=True, track_running_stats=True)
        (act): SiLU(inplace=True)
      )
      (1): Conv(
        (conv): Conv2d(64, 64, kernel_size=(3, 3), stride=(1, 1), padding=(1, 1), bias=False)
        (bn): BatchNorm2d(64, eps=0.001, momentum=0.03, affine=True, track_running_stats=True)
        (act): SiLU(inplace=True)
      )
      (2): Conv2d(64, 64, kernel_size=(1, 1), stride=(1, 1))
    )
    (2): Sequential(
      (0): Conv(
        (conv): Conv2d(576, 64, kernel_size=(3, 3), stride=(1, 1), padding=(1, 1), bias=False)
        (bn): BatchNorm2d(64, eps=0.001, momentum=0.03, affine=True, track_running_stats=True)
        (act): SiLU(inplace=True)
      )
      (1): Conv(
        (conv): Conv2d(64, 64, kernel_size=(3, 3), stride=(1, 1), padding=(1, 1), bias=False)
        (bn): BatchNorm2d(64, eps=0.001, momentum=0.03, affine=True, track_running_stats=True)
        (act): SiLU(inplace=True)
      )
      (2): Conv2d(64, 64, kernel_size=(1, 1), stride=(1, 1))
    )
  )
  (cv3): ModuleList(
    (0): Sequential(
      (0): Conv(
        (conv): Conv2d(192, 192, kernel_size=(3, 3), stride=(1, 1), padding=(1, 1), bias=False)
        (bn): BatchNorm2d(192, eps=0.001, momentum=0.03, affine=True, track_running_stats=True)
        (act): SiLU(inplace=True)
      )
      (1): Conv(
        (conv): Conv2d(192, 192, kernel_size=(3, 3), stride=(1, 1), padding=(1, 1), bias=False)
        (bn): BatchNorm2d(192, eps=0.001, momentum=0.03, affine=True, track_running_stats=True)
        (act): SiLU(inplace=True)
      )
      (2): Conv2d(192, 1, kernel_size=(1, 1), stride=(1, 1))
    )
    (1): Sequential(
      (0): Conv(
        (conv): Conv2d(384, 192, kernel_size=(3, 3), stride=(1, 1), padding=(1, 1), bias=False)
        (bn): BatchNorm2d(192, eps=0.001, momentum=0.03, affine=True, track_running_stats=True)
        (act): SiLU(inplace=True)
      )
      (1): Conv(
        (conv): Conv2d(192, 192, kernel_size=(3, 3), stride=(1, 1), padding=(1, 1), bias=False)
        (bn): BatchNorm2d(192, eps=0.001, momentum=0.03, affine=True, track_running_stats=True)
        (act): SiLU(inplace=True)
      )
      (2): Conv2d(192, 1, kernel_size=(1, 1), stride=(1, 1))
    )
    (2): Sequential(
      (0): Conv(
        (conv): Conv2d(576, 192, kernel_size=(3, 3), stride=(1, 1), padding=(1, 1), bias=False)
        (bn): BatchNorm2d(192, eps=0.001, momentum=0.03, affine=True, track_running_stats=True)
        (act): SiLU(inplace=True)
      )
      (1): Conv(
        (conv): Conv2d(192, 192, kernel_size=(3, 3), stride=(1, 1), padding=(1, 1), bias=False)
        (bn): BatchNorm2d(192, eps=0.001, momentum=0.03, affine=True, track_running_stats=True)
        (act): SiLU(inplace=True)
      )
      (2): Conv2d(192, 1, kernel_size=(1, 1), stride=(1, 1))
    )
  )
  (dfl): DFL(
    (conv): Conv2d(16, 1, kernel_size=(1, 1), stride=(1, 1), bias=False)
  )
)
Layer 22 is GradReversal()
Layer 23 is Conv_BN(
  (conv1): Conv2d(192, 64, kernel_size=(3, 3), stride=(1, 1), padding=(1, 1))
  (bn1): BatchNorm2d(64, eps=0.001, momentum=0.03, affine=True, track_running_stats=True)
  (relu): ReLU(inplace=True)
)
Layer 24 is MaxPool(
  (pool): AdaptiveAvgPool2d(output_size=20)
)
Layer 25 is GradReversal()
Layer 26 is Conv_BN(
  (conv1): Conv2d(384, 128, kernel_size=(3, 3), stride=(1, 1), padding=(1, 1))
  (bn1): BatchNorm2d(128, eps=0.001, momentum=0.03, affine=True, track_running_stats=True)
  (relu): ReLU(inplace=True)
)
Layer 27 is MaxPool(
  (pool): AdaptiveAvgPool2d(output_size=20)
)
Layer 28 is Conv_BN(
  (conv1): Conv2d(128, 64, kernel_size=(3, 3), stride=(1, 1), padding=(1, 1))
  (bn1): BatchNorm2d(64, eps=0.001, momentum=0.03, affine=True, track_running_stats=True)
  (relu): ReLU(inplace=True)
)
Layer 29 is Concat()
Layer 30 is Conv_BN(
  (conv1): Conv2d(128, 32, kernel_size=(3, 3), stride=(1, 1), padding=(1, 1))
  (bn1): BatchNorm2d(32, eps=0.001, momentum=0.03, affine=True, track_running_stats=True)
  (relu): ReLU(inplace=True)
)
Layer 31 is MaxPool(
  (pool): AdaptiveAvgPool2d(output_size=10)
)
Layer 32 is GradReversal()
Layer 33 is Conv_BN(
  (conv1): Conv2d(576, 256, kernel_size=(3, 3), stride=(1, 1), padding=(1, 1))
  (bn1): BatchNorm2d(256, eps=0.001, momentum=0.03, affine=True, track_running_stats=True)
  (relu): ReLU(inplace=True)
)
Layer 34 is Conv_BN(
  (conv1): Conv2d(256, 128, kernel_size=(3, 3), stride=(1, 1), padding=(1, 1))
  (bn1): BatchNorm2d(128, eps=0.001, momentum=0.03, affine=True, track_running_stats=True)
  (relu): ReLU(inplace=True)
)
Layer 35 is MaxPool(
  (pool): AdaptiveAvgPool2d(output_size=10)
)
Layer 36 is Conv_BN(
  (conv1): Conv2d(128, 64, kernel_size=(3, 3), stride=(1, 1), padding=(1, 1))
  (bn1): BatchNorm2d(64, eps=0.001, momentum=0.03, affine=True, track_running_stats=True)
  (relu): ReLU(inplace=True)
)
Layer 37 is Conv_BN(
  (conv1): Conv2d(64, 32, kernel_size=(3, 3), stride=(1, 1), padding=(1, 1))
  (bn1): BatchNorm2d(32, eps=0.001, momentum=0.03, affine=True, track_running_stats=True)
  (relu): ReLU(inplace=True)
)
Layer 38 is Concat()
Layer 39 is Conv_BN(
  (conv1): Conv2d(64, 16, kernel_size=(3, 3), stride=(1, 1), padding=(1, 1))
  (bn1): BatchNorm2d(16, eps=0.001, momentum=0.03, affine=True, track_running_stats=True)
  (relu): ReLU(inplace=True)
)
Layer 40 is Conv_BN(
  (conv1): Conv2d(16, 1, kernel_size=(3, 3), stride=(1, 1), padding=(1, 1))
  (bn1): BatchNorm2d(1, eps=0.001, momentum=0.03, affine=True, track_running_stats=True)
  (relu): ReLU(inplace=True)
)
Layer 41 is AdaptiveAvgPooling(
  (pool): AdaptiveAvgPool2d(output_size=1)
  (fc1): Linear(in_features=1, out_features=2, bias=True)
  (flat): Flatten(start_dim=1, end_dim=-1)
)
Layer 42 is Detect(
  (cv2): ModuleList(
    (0): Sequential(
      (0): Conv(
        (conv): Conv2d(192, 64, kernel_size=(3, 3), stride=(1, 1), padding=(1, 1), bias=False)
        (bn): BatchNorm2d(64, eps=0.001, momentum=0.03, affine=True, track_running_stats=True)
        (act): SiLU(inplace=True)
      )
      (1): Conv(
        (conv): Conv2d(64, 64, kernel_size=(3, 3), stride=(1, 1), padding=(1, 1), bias=False)
        (bn): BatchNorm2d(64, eps=0.001, momentum=0.03, affine=True, track_running_stats=True)
        (act): SiLU(inplace=True)
      )
      (2): Conv2d(64, 64, kernel_size=(1, 1), stride=(1, 1))
    )
    (1): Sequential(
      (0): Conv(
        (conv): Conv2d(384, 64, kernel_size=(3, 3), stride=(1, 1), padding=(1, 1), bias=False)
        (bn): BatchNorm2d(64, eps=0.001, momentum=0.03, affine=True, track_running_stats=True)
        (act): SiLU(inplace=True)
      )
      (1): Conv(
        (conv): Conv2d(64, 64, kernel_size=(3, 3), stride=(1, 1), padding=(1, 1), bias=False)
        (bn): BatchNorm2d(64, eps=0.001, momentum=0.03, affine=True, track_running_stats=True)
        (act): SiLU(inplace=True)
      )
      (2): Conv2d(64, 64, kernel_size=(1, 1), stride=(1, 1))
    )
    (2): Sequential(
      (0): Conv(
        (conv): Conv2d(576, 64, kernel_size=(3, 3), stride=(1, 1), padding=(1, 1), bias=False)
        (bn): BatchNorm2d(64, eps=0.001, momentum=0.03, affine=True, track_running_stats=True)
        (act): SiLU(inplace=True)
      )
      (1): Conv(
        (conv): Conv2d(64, 64, kernel_size=(3, 3), stride=(1, 1), padding=(1, 1), bias=False)
        (bn): BatchNorm2d(64, eps=0.001, momentum=0.03, affine=True, track_running_stats=True)
        (act): SiLU(inplace=True)
      )
      (2): Conv2d(64, 64, kernel_size=(1, 1), stride=(1, 1))
    )
  )
  (cv3): ModuleList(
    (0): Sequential(
      (0): Conv(
        (conv): Conv2d(192, 192, kernel_size=(3, 3), stride=(1, 1), padding=(1, 1), bias=False)
        (bn): BatchNorm2d(192, eps=0.001, momentum=0.03, affine=True, track_running_stats=True)
        (act): SiLU(inplace=True)
      )
      (1): Conv(
        (conv): Conv2d(192, 192, kernel_size=(3, 3), stride=(1, 1), padding=(1, 1), bias=False)
        (bn): BatchNorm2d(192, eps=0.001, momentum=0.03, affine=True, track_running_stats=True)
        (act): SiLU(inplace=True)
      )
      (2): Conv2d(192, 1, kernel_size=(1, 1), stride=(1, 1))
    )
    (1): Sequential(
      (0): Conv(
        (conv): Conv2d(384, 192, kernel_size=(3, 3), stride=(1, 1), padding=(1, 1), bias=False)
        (bn): BatchNorm2d(192, eps=0.001, momentum=0.03, affine=True, track_running_stats=True)
        (act): SiLU(inplace=True)
      )
      (1): Conv(
        (conv): Conv2d(192, 192, kernel_size=(3, 3), stride=(1, 1), padding=(1, 1), bias=False)
        (bn): BatchNorm2d(192, eps=0.001, momentum=0.03, affine=True, track_running_stats=True)
        (act): SiLU(inplace=True)
      )
      (2): Conv2d(192, 1, kernel_size=(1, 1), stride=(1, 1))
    )
    (2): Sequential(
      (0): Conv(
        (conv): Conv2d(576, 192, kernel_size=(3, 3), stride=(1, 1), padding=(1, 1), bias=False)
        (bn): BatchNorm2d(192, eps=0.001, momentum=0.03, affine=True, track_running_stats=True)
        (act): SiLU(inplace=True)
      )
      (1): Conv(
        (conv): Conv2d(192, 192, kernel_size=(3, 3), stride=(1, 1), padding=(1, 1), bias=False)
        (bn): BatchNorm2d(192, eps=0.001, momentum=0.03, affine=True, track_running_stats=True)
        (act): SiLU(inplace=True)
      )
      (2): Conv2d(192, 1, kernel_size=(1, 1), stride=(1, 1))
    )
  )
  (dfl): DFL(
    (conv): Conv2d(16, 1, kernel_size=(1, 1), stride=(1, 1), bias=False)
  )
)
Layer 22 is GradReversal()
Layer 23 is Conv_BN(
  (conv1): Conv2d(192, 64, kernel_size=(3, 3), stride=(1, 1), padding=(1, 1))
  (bn1): BatchNorm2d(64, eps=0.001, momentum=0.03, affine=True, track_running_stats=True)
  (relu): ReLU(inplace=True)
)
Layer 24 is MaxPool(
  (pool): AdaptiveAvgPool2d(output_size=20)
)
Layer 25 is GradReversal()
Layer 26 is Conv_BN(
  (conv1): Conv2d(384, 128, kernel_size=(3, 3), stride=(1, 1), padding=(1, 1))
  (bn1): BatchNorm2d(128, eps=0.001, momentum=0.03, affine=True, track_running_stats=True)
  (relu): ReLU(inplace=True)
)
Layer 27 is MaxPool(
  (pool): AdaptiveAvgPool2d(output_size=20)
)
Layer 28 is Conv_BN(
  (conv1): Conv2d(128, 64, kernel_size=(3, 3), stride=(1, 1), padding=(1, 1))
  (bn1): BatchNorm2d(64, eps=0.001, momentum=0.03, affine=True, track_running_stats=True)
  (relu): ReLU(inplace=True)
)
Layer 29 is Concat()
Layer 30 is Conv_BN(
  (conv1): Conv2d(128, 32, kernel_size=(3, 3), stride=(1, 1), padding=(1, 1))
  (bn1): BatchNorm2d(32, eps=0.001, momentum=0.03, affine=True, track_running_stats=True)
  (relu): ReLU(inplace=True)
)
Layer 31 is MaxPool(
  (pool): AdaptiveAvgPool2d(output_size=10)
)
Layer 32 is GradReversal()
Layer 33 is Conv_BN(
  (conv1): Conv2d(576, 256, kernel_size=(3, 3), stride=(1, 1), padding=(1, 1))
  (bn1): BatchNorm2d(256, eps=0.001, momentum=0.03, affine=True, track_running_stats=True)
  (relu): ReLU(inplace=True)
)
Layer 34 is Conv_BN(
  (conv1): Conv2d(256, 128, kernel_size=(3, 3), stride=(1, 1), padding=(1, 1))
  (bn1): BatchNorm2d(128, eps=0.001, momentum=0.03, affine=True, track_running_stats=True)
  (relu): ReLU(inplace=True)
)
Layer 35 is MaxPool(
  (pool): AdaptiveAvgPool2d(output_size=10)
)
Layer 36 is Conv_BN(
  (conv1): Conv2d(128, 64, kernel_size=(3, 3), stride=(1, 1), padding=(1, 1))
  (bn1): BatchNorm2d(64, eps=0.001, momentum=0.03, affine=True, track_running_stats=True)
  (relu): ReLU(inplace=True)
)
Layer 37 is Conv_BN(
  (conv1): Conv2d(64, 32, kernel_size=(3, 3), stride=(1, 1), padding=(1, 1))
  (bn1): BatchNorm2d(32, eps=0.001, momentum=0.03, affine=True, track_running_stats=True)
  (relu): ReLU(inplace=True)
)
Layer 38 is Concat()
Layer 39 is Conv_BN(
  (conv1): Conv2d(64, 16, kernel_size=(3, 3), stride=(1, 1), padding=(1, 1))
  (bn1): BatchNorm2d(16, eps=0.001, momentum=0.03, affine=True, track_running_stats=True)
  (relu): ReLU(inplace=True)
)
Layer 40 is Conv_BN(
  (conv1): Conv2d(16, 1, kernel_size=(3, 3), stride=(1, 1), padding=(1, 1))
  (bn1): BatchNorm2d(1, eps=0.001, momentum=0.03, affine=True, track_running_stats=True)
  (relu): ReLU(inplace=True)
)
Layer 41 is AdaptiveAvgPooling(
  (pool): AdaptiveAvgPool2d(output_size=1)
  (fc1): Linear(in_features=1, out_features=2, bias=True)
  (flat): Flatten(start_dim=1, end_dim=-1)
)
Layer 42 is Detect(
  (cv2): ModuleList(
    (0): Sequential(
      (0): Conv(
        (conv): Conv2d(192, 64, kernel_size=(3, 3), stride=(1, 1), padding=(1, 1), bias=False)
        (bn): BatchNorm2d(64, eps=0.001, momentum=0.03, affine=True, track_running_stats=True)
        (act): SiLU(inplace=True)
      )
      (1): Conv(
        (conv): Conv2d(64, 64, kernel_size=(3, 3), stride=(1, 1), padding=(1, 1), bias=False)
        (bn): BatchNorm2d(64, eps=0.001, momentum=0.03, affine=True, track_running_stats=True)
        (act): SiLU(inplace=True)
      )
      (2): Conv2d(64, 64, kernel_size=(1, 1), stride=(1, 1))
    )
    (1): Sequential(
      (0): Conv(
        (conv): Conv2d(384, 64, kernel_size=(3, 3), stride=(1, 1), padding=(1, 1), bias=False)
        (bn): BatchNorm2d(64, eps=0.001, momentum=0.03, affine=True, track_running_stats=True)
        (act): SiLU(inplace=True)
      )
      (1): Conv(
        (conv): Conv2d(64, 64, kernel_size=(3, 3), stride=(1, 1), padding=(1, 1), bias=False)
        (bn): BatchNorm2d(64, eps=0.001, momentum=0.03, affine=True, track_running_stats=True)
        (act): SiLU(inplace=True)
      )
      (2): Conv2d(64, 64, kernel_size=(1, 1), stride=(1, 1))
    )
    (2): Sequential(
      (0): Conv(
        (conv): Conv2d(576, 64, kernel_size=(3, 3), stride=(1, 1), padding=(1, 1), bias=False)
        (bn): BatchNorm2d(64, eps=0.001, momentum=0.03, affine=True, track_running_stats=True)
        (act): SiLU(inplace=True)
      )
      (1): Conv(
        (conv): Conv2d(64, 64, kernel_size=(3, 3), stride=(1, 1), padding=(1, 1), bias=False)
        (bn): BatchNorm2d(64, eps=0.001, momentum=0.03, affine=True, track_running_stats=True)
        (act): SiLU(inplace=True)
      )
      (2): Conv2d(64, 64, kernel_size=(1, 1), stride=(1, 1))
    )
  )
  (cv3): ModuleList(
    (0): Sequential(
      (0): Conv(
        (conv): Conv2d(192, 192, kernel_size=(3, 3), stride=(1, 1), padding=(1, 1), bias=False)
        (bn): BatchNorm2d(192, eps=0.001, momentum=0.03, affine=True, track_running_stats=True)
        (act): SiLU(inplace=True)
      )
      (1): Conv(
        (conv): Conv2d(192, 192, kernel_size=(3, 3), stride=(1, 1), padding=(1, 1), bias=False)
        (bn): BatchNorm2d(192, eps=0.001, momentum=0.03, affine=True, track_running_stats=True)
        (act): SiLU(inplace=True)
      )
      (2): Conv2d(192, 1, kernel_size=(1, 1), stride=(1, 1))
    )
    (1): Sequential(
      (0): Conv(
        (conv): Conv2d(384, 192, kernel_size=(3, 3), stride=(1, 1), padding=(1, 1), bias=False)
        (bn): BatchNorm2d(192, eps=0.001, momentum=0.03, affine=True, track_running_stats=True)
        (act): SiLU(inplace=True)
      )
      (1): Conv(
        (conv): Conv2d(192, 192, kernel_size=(3, 3), stride=(1, 1), padding=(1, 1), bias=False)
        (bn): BatchNorm2d(192, eps=0.001, momentum=0.03, affine=True, track_running_stats=True)
        (act): SiLU(inplace=True)
      )
      (2): Conv2d(192, 1, kernel_size=(1, 1), stride=(1, 1))
    )
    (2): Sequential(
      (0): Conv(
        (conv): Conv2d(576, 192, kernel_size=(3, 3), stride=(1, 1), padding=(1, 1), bias=False)
        (bn): BatchNorm2d(192, eps=0.001, momentum=0.03, affine=True, track_running_stats=True)
        (act): SiLU(inplace=True)
      )
      (1): Conv(
        (conv): Conv2d(192, 192, kernel_size=(3, 3), stride=(1, 1), padding=(1, 1), bias=False)
        (bn): BatchNorm2d(192, eps=0.001, momentum=0.03, affine=True, track_running_stats=True)
        (act): SiLU(inplace=True)
      )
      (2): Conv2d(192, 1, kernel_size=(1, 1), stride=(1, 1))
    )
  )
  (dfl): DFL(
    (conv): Conv2d(16, 1, kernel_size=(1, 1), stride=(1, 1), bias=False)
  )
)
Layer 22 is GradReversal()
Layer 23 is Conv_BN(
  (conv1): Conv2d(192, 64, kernel_size=(3, 3), stride=(1, 1), padding=(1, 1))
  (bn1): BatchNorm2d(64, eps=0.001, momentum=0.03, affine=True, track_running_stats=True)
  (relu): ReLU(inplace=True)
)
Layer 24 is MaxPool(
  (pool): AdaptiveAvgPool2d(output_size=20)
)
Layer 25 is GradReversal()
Layer 26 is Conv_BN(
  (conv1): Conv2d(384, 128, kernel_size=(3, 3), stride=(1, 1), padding=(1, 1))
  (bn1): BatchNorm2d(128, eps=0.001, momentum=0.03, affine=True, track_running_stats=True)
  (relu): ReLU(inplace=True)
)
Layer 27 is MaxPool(
  (pool): AdaptiveAvgPool2d(output_size=20)
)
Layer 28 is Conv_BN(
  (conv1): Conv2d(128, 64, kernel_size=(3, 3), stride=(1, 1), padding=(1, 1))
  (bn1): BatchNorm2d(64, eps=0.001, momentum=0.03, affine=True, track_running_stats=True)
  (relu): ReLU(inplace=True)
)
Layer 29 is Concat()
Layer 30 is Conv_BN(
  (conv1): Conv2d(128, 32, kernel_size=(3, 3), stride=(1, 1), padding=(1, 1))
  (bn1): BatchNorm2d(32, eps=0.001, momentum=0.03, affine=True, track_running_stats=True)
  (relu): ReLU(inplace=True)
)
Layer 31 is MaxPool(
  (pool): AdaptiveAvgPool2d(output_size=10)
)
Layer 32 is GradReversal()
Layer 33 is Conv_BN(
  (conv1): Conv2d(576, 256, kernel_size=(3, 3), stride=(1, 1), padding=(1, 1))
  (bn1): BatchNorm2d(256, eps=0.001, momentum=0.03, affine=True, track_running_stats=True)
  (relu): ReLU(inplace=True)
)
Layer 34 is Conv_BN(
  (conv1): Conv2d(256, 128, kernel_size=(3, 3), stride=(1, 1), padding=(1, 1))
  (bn1): BatchNorm2d(128, eps=0.001, momentum=0.03, affine=True, track_running_stats=True)
  (relu): ReLU(inplace=True)
)
Layer 35 is MaxPool(
  (pool): AdaptiveAvgPool2d(output_size=10)
)
Layer 36 is Conv_BN(
  (conv1): Conv2d(128, 64, kernel_size=(3, 3), stride=(1, 1), padding=(1, 1))
  (bn1): BatchNorm2d(64, eps=0.001, momentum=0.03, affine=True, track_running_stats=True)
  (relu): ReLU(inplace=True)
)
Layer 37 is Conv_BN(
  (conv1): Conv2d(64, 32, kernel_size=(3, 3), stride=(1, 1), padding=(1, 1))
  (bn1): BatchNorm2d(32, eps=0.001, momentum=0.03, affine=True, track_running_stats=True)
  (relu): ReLU(inplace=True)
)
Layer 38 is Concat()
Layer 39 is Conv_BN(
  (conv1): Conv2d(64, 16, kernel_size=(3, 3), stride=(1, 1), padding=(1, 1))
  (bn1): BatchNorm2d(16, eps=0.001, momentum=0.03, affine=True, track_running_stats=True)
  (relu): ReLU(inplace=True)
)
Layer 40 is Conv_BN(
  (conv1): Conv2d(16, 1, kernel_size=(3, 3), stride=(1, 1), padding=(1, 1))
  (bn1): BatchNorm2d(1, eps=0.001, momentum=0.03, affine=True, track_running_stats=True)
  (relu): ReLU(inplace=True)
)
Layer 41 is AdaptiveAvgPooling(
  (pool): AdaptiveAvgPool2d(output_size=1)
  (fc1): Linear(in_features=1, out_features=2, bias=True)
  (flat): Flatten(start_dim=1, end_dim=-1)
)
Layer 42 is Detect(
  (cv2): ModuleList(
    (0): Sequential(
      (0): Conv(
        (conv): Conv2d(192, 64, kernel_size=(3, 3), stride=(1, 1), padding=(1, 1), bias=False)
        (bn): BatchNorm2d(64, eps=0.001, momentum=0.03, affine=True, track_running_stats=True)
        (act): SiLU(inplace=True)
      )
      (1): Conv(
        (conv): Conv2d(64, 64, kernel_size=(3, 3), stride=(1, 1), padding=(1, 1), bias=False)
        (bn): BatchNorm2d(64, eps=0.001, momentum=0.03, affine=True, track_running_stats=True)
        (act): SiLU(inplace=True)
      )
      (2): Conv2d(64, 64, kernel_size=(1, 1), stride=(1, 1))
    )
    (1): Sequential(
      (0): Conv(
        (conv): Conv2d(384, 64, kernel_size=(3, 3), stride=(1, 1), padding=(1, 1), bias=False)
        (bn): BatchNorm2d(64, eps=0.001, momentum=0.03, affine=True, track_running_stats=True)
        (act): SiLU(inplace=True)
      )
      (1): Conv(
        (conv): Conv2d(64, 64, kernel_size=(3, 3), stride=(1, 1), padding=(1, 1), bias=False)
        (bn): BatchNorm2d(64, eps=0.001, momentum=0.03, affine=True, track_running_stats=True)
        (act): SiLU(inplace=True)
      )
      (2): Conv2d(64, 64, kernel_size=(1, 1), stride=(1, 1))
    )
    (2): Sequential(
      (0): Conv(
        (conv): Conv2d(576, 64, kernel_size=(3, 3), stride=(1, 1), padding=(1, 1), bias=False)
        (bn): BatchNorm2d(64, eps=0.001, momentum=0.03, affine=True, track_running_stats=True)
        (act): SiLU(inplace=True)
      )
      (1): Conv(
        (conv): Conv2d(64, 64, kernel_size=(3, 3), stride=(1, 1), padding=(1, 1), bias=False)
        (bn): BatchNorm2d(64, eps=0.001, momentum=0.03, affine=True, track_running_stats=True)
        (act): SiLU(inplace=True)
      )
      (2): Conv2d(64, 64, kernel_size=(1, 1), stride=(1, 1))
    )
  )
  (cv3): ModuleList(
    (0): Sequential(
      (0): Conv(
        (conv): Conv2d(192, 192, kernel_size=(3, 3), stride=(1, 1), padding=(1, 1), bias=False)
        (bn): BatchNorm2d(192, eps=0.001, momentum=0.03, affine=True, track_running_stats=True)
        (act): SiLU(inplace=True)
      )
      (1): Conv(
        (conv): Conv2d(192, 192, kernel_size=(3, 3), stride=(1, 1), padding=(1, 1), bias=False)
        (bn): BatchNorm2d(192, eps=0.001, momentum=0.03, affine=True, track_running_stats=True)
        (act): SiLU(inplace=True)
      )
      (2): Conv2d(192, 1, kernel_size=(1, 1), stride=(1, 1))
    )
    (1): Sequential(
      (0): Conv(
        (conv): Conv2d(384, 192, kernel_size=(3, 3), stride=(1, 1), padding=(1, 1), bias=False)
        (bn): BatchNorm2d(192, eps=0.001, momentum=0.03, affine=True, track_running_stats=True)
        (act): SiLU(inplace=True)
      )
      (1): Conv(
        (conv): Conv2d(192, 192, kernel_size=(3, 3), stride=(1, 1), padding=(1, 1), bias=False)
        (bn): BatchNorm2d(192, eps=0.001, momentum=0.03, affine=True, track_running_stats=True)
        (act): SiLU(inplace=True)
      )
      (2): Conv2d(192, 1, kernel_size=(1, 1), stride=(1, 1))
    )
    (2): Sequential(
      (0): Conv(
        (conv): Conv2d(576, 192, kernel_size=(3, 3), stride=(1, 1), padding=(1, 1), bias=False)
        (bn): BatchNorm2d(192, eps=0.001, momentum=0.03, affine=True, track_running_stats=True)
        (act): SiLU(inplace=True)
      )
      (1): Conv(
        (conv): Conv2d(192, 192, kernel_size=(3, 3), stride=(1, 1), padding=(1, 1), bias=False)
        (bn): BatchNorm2d(192, eps=0.001, momentum=0.03, affine=True, track_running_stats=True)
        (act): SiLU(inplace=True)
      )
      (2): Conv2d(192, 1, kernel_size=(1, 1), stride=(1, 1))
    )
  )
  (dfl): DFL(
    (conv): Conv2d(16, 1, kernel_size=(1, 1), stride=(1, 1), bias=False)
  )
)
Layer 22 is GradReversal()
Layer 23 is Conv_BN(
  (conv1): Conv2d(192, 64, kernel_size=(3, 3), stride=(1, 1), padding=(1, 1))
  (bn1): BatchNorm2d(64, eps=0.001, momentum=0.03, affine=True, track_running_stats=True)
  (relu): ReLU(inplace=True)
)
Layer 24 is MaxPool(
  (pool): AdaptiveAvgPool2d(output_size=20)
)
Layer 25 is GradReversal()
Layer 26 is Conv_BN(
  (conv1): Conv2d(384, 128, kernel_size=(3, 3), stride=(1, 1), padding=(1, 1))
  (bn1): BatchNorm2d(128, eps=0.001, momentum=0.03, affine=True, track_running_stats=True)
  (relu): ReLU(inplace=True)
)
Layer 27 is MaxPool(
  (pool): AdaptiveAvgPool2d(output_size=20)
)
Layer 28 is Conv_BN(
  (conv1): Conv2d(128, 64, kernel_size=(3, 3), stride=(1, 1), padding=(1, 1))
  (bn1): BatchNorm2d(64, eps=0.001, momentum=0.03, affine=True, track_running_stats=True)
  (relu): ReLU(inplace=True)
)
Layer 29 is Concat()
Layer 30 is Conv_BN(
  (conv1): Conv2d(128, 32, kernel_size=(3, 3), stride=(1, 1), padding=(1, 1))
  (bn1): BatchNorm2d(32, eps=0.001, momentum=0.03, affine=True, track_running_stats=True)
  (relu): ReLU(inplace=True)
)
Layer 31 is MaxPool(
  (pool): AdaptiveAvgPool2d(output_size=10)
)
Layer 32 is GradReversal()
Layer 33 is Conv_BN(
  (conv1): Conv2d(576, 256, kernel_size=(3, 3), stride=(1, 1), padding=(1, 1))
  (bn1): BatchNorm2d(256, eps=0.001, momentum=0.03, affine=True, track_running_stats=True)
  (relu): ReLU(inplace=True)
)
Layer 34 is Conv_BN(
  (conv1): Conv2d(256, 128, kernel_size=(3, 3), stride=(1, 1), padding=(1, 1))
  (bn1): BatchNorm2d(128, eps=0.001, momentum=0.03, affine=True, track_running_stats=True)
  (relu): ReLU(inplace=True)
)
Layer 35 is MaxPool(
  (pool): AdaptiveAvgPool2d(output_size=10)
)
Layer 36 is Conv_BN(
  (conv1): Conv2d(128, 64, kernel_size=(3, 3), stride=(1, 1), padding=(1, 1))
  (bn1): BatchNorm2d(64, eps=0.001, momentum=0.03, affine=True, track_running_stats=True)
  (relu): ReLU(inplace=True)
)
Layer 37 is Conv_BN(
  (conv1): Conv2d(64, 32, kernel_size=(3, 3), stride=(1, 1), padding=(1, 1))
  (bn1): BatchNorm2d(32, eps=0.001, momentum=0.03, affine=True, track_running_stats=True)
  (relu): ReLU(inplace=True)
)
Layer 38 is Concat()
Layer 39 is Conv_BN(
  (conv1): Conv2d(64, 16, kernel_size=(3, 3), stride=(1, 1), padding=(1, 1))
  (bn1): BatchNorm2d(16, eps=0.001, momentum=0.03, affine=True, track_running_stats=True)
  (relu): ReLU(inplace=True)
)
Layer 40 is Conv_BN(
  (conv1): Conv2d(16, 1, kernel_size=(3, 3), stride=(1, 1), padding=(1, 1))
  (bn1): BatchNorm2d(1, eps=0.001, momentum=0.03, affine=True, track_running_stats=True)
  (relu): ReLU(inplace=True)
)
Layer 41 is AdaptiveAvgPooling(
  (pool): AdaptiveAvgPool2d(output_size=1)
  (fc1): Linear(in_features=1, out_features=2, bias=True)
  (flat): Flatten(start_dim=1, end_dim=-1)
)
Layer 42 is Detect(
  (cv2): ModuleList(
    (0): Sequential(
      (0): Conv(
        (conv): Conv2d(192, 64, kernel_size=(3, 3), stride=(1, 1), padding=(1, 1), bias=False)
        (bn): BatchNorm2d(64, eps=0.001, momentum=0.03, affine=True, track_running_stats=True)
        (act): SiLU(inplace=True)
      )
      (1): Conv(
        (conv): Conv2d(64, 64, kernel_size=(3, 3), stride=(1, 1), padding=(1, 1), bias=False)
        (bn): BatchNorm2d(64, eps=0.001, momentum=0.03, affine=True, track_running_stats=True)
        (act): SiLU(inplace=True)
      )
      (2): Conv2d(64, 64, kernel_size=(1, 1), stride=(1, 1))
    )
    (1): Sequential(
      (0): Conv(
        (conv): Conv2d(384, 64, kernel_size=(3, 3), stride=(1, 1), padding=(1, 1), bias=False)
        (bn): BatchNorm2d(64, eps=0.001, momentum=0.03, affine=True, track_running_stats=True)
        (act): SiLU(inplace=True)
      )
      (1): Conv(
        (conv): Conv2d(64, 64, kernel_size=(3, 3), stride=(1, 1), padding=(1, 1), bias=False)
        (bn): BatchNorm2d(64, eps=0.001, momentum=0.03, affine=True, track_running_stats=True)
        (act): SiLU(inplace=True)
      )
      (2): Conv2d(64, 64, kernel_size=(1, 1), stride=(1, 1))
    )
    (2): Sequential(
      (0): Conv(
        (conv): Conv2d(576, 64, kernel_size=(3, 3), stride=(1, 1), padding=(1, 1), bias=False)
        (bn): BatchNorm2d(64, eps=0.001, momentum=0.03, affine=True, track_running_stats=True)
        (act): SiLU(inplace=True)
      )
      (1): Conv(
        (conv): Conv2d(64, 64, kernel_size=(3, 3), stride=(1, 1), padding=(1, 1), bias=False)
        (bn): BatchNorm2d(64, eps=0.001, momentum=0.03, affine=True, track_running_stats=True)
        (act): SiLU(inplace=True)
      )
      (2): Conv2d(64, 64, kernel_size=(1, 1), stride=(1, 1))
    )
  )
  (cv3): ModuleList(
    (0): Sequential(
      (0): Conv(
        (conv): Conv2d(192, 192, kernel_size=(3, 3), stride=(1, 1), padding=(1, 1), bias=False)
        (bn): BatchNorm2d(192, eps=0.001, momentum=0.03, affine=True, track_running_stats=True)
        (act): SiLU(inplace=True)
      )
      (1): Conv(
        (conv): Conv2d(192, 192, kernel_size=(3, 3), stride=(1, 1), padding=(1, 1), bias=False)
        (bn): BatchNorm2d(192, eps=0.001, momentum=0.03, affine=True, track_running_stats=True)
        (act): SiLU(inplace=True)
      )
      (2): Conv2d(192, 1, kernel_size=(1, 1), stride=(1, 1))
    )
    (1): Sequential(
      (0): Conv(
        (conv): Conv2d(384, 192, kernel_size=(3, 3), stride=(1, 1), padding=(1, 1), bias=False)
        (bn): BatchNorm2d(192, eps=0.001, momentum=0.03, affine=True, track_running_stats=True)
        (act): SiLU(inplace=True)
      )
      (1): Conv(
        (conv): Conv2d(192, 192, kernel_size=(3, 3), stride=(1, 1), padding=(1, 1), bias=False)
        (bn): BatchNorm2d(192, eps=0.001, momentum=0.03, affine=True, track_running_stats=True)
        (act): SiLU(inplace=True)
      )
      (2): Conv2d(192, 1, kernel_size=(1, 1), stride=(1, 1))
    )
    (2): Sequential(
      (0): Conv(
        (conv): Conv2d(576, 192, kernel_size=(3, 3), stride=(1, 1), padding=(1, 1), bias=False)
        (bn): BatchNorm2d(192, eps=0.001, momentum=0.03, affine=True, track_running_stats=True)
        (act): SiLU(inplace=True)
      )
      (1): Conv(
        (conv): Conv2d(192, 192, kernel_size=(3, 3), stride=(1, 1), padding=(1, 1), bias=False)
        (bn): BatchNorm2d(192, eps=0.001, momentum=0.03, affine=True, track_running_stats=True)
        (act): SiLU(inplace=True)
      )
      (2): Conv2d(192, 1, kernel_size=(1, 1), stride=(1, 1))
    )
  )
  (dfl): DFL(
    (conv): Conv2d(16, 1, kernel_size=(1, 1), stride=(1, 1), bias=False)
  )
)
Layer 22 is GradReversal()
Layer 23 is Conv_BN(
  (conv1): Conv2d(192, 64, kernel_size=(3, 3), stride=(1, 1), padding=(1, 1))
  (bn1): BatchNorm2d(64, eps=0.001, momentum=0.03, affine=True, track_running_stats=True)
  (relu): ReLU(inplace=True)
)
Layer 24 is MaxPool(
  (pool): AdaptiveAvgPool2d(output_size=20)
)
Layer 25 is GradReversal()
Layer 26 is Conv_BN(
  (conv1): Conv2d(384, 128, kernel_size=(3, 3), stride=(1, 1), padding=(1, 1))
  (bn1): BatchNorm2d(128, eps=0.001, momentum=0.03, affine=True, track_running_stats=True)
  (relu): ReLU(inplace=True)
)
Layer 27 is MaxPool(
  (pool): AdaptiveAvgPool2d(output_size=20)
)
Layer 28 is Conv_BN(
  (conv1): Conv2d(128, 64, kernel_size=(3, 3), stride=(1, 1), padding=(1, 1))
  (bn1): BatchNorm2d(64, eps=0.001, momentum=0.03, affine=True, track_running_stats=True)
  (relu): ReLU(inplace=True)
)
Layer 29 is Concat()
Layer 30 is Conv_BN(
  (conv1): Conv2d(128, 32, kernel_size=(3, 3), stride=(1, 1), padding=(1, 1))
  (bn1): BatchNorm2d(32, eps=0.001, momentum=0.03, affine=True, track_running_stats=True)
  (relu): ReLU(inplace=True)
)
Layer 31 is MaxPool(
  (pool): AdaptiveAvgPool2d(output_size=10)
)
Layer 32 is GradReversal()
Layer 33 is Conv_BN(
  (conv1): Conv2d(576, 256, kernel_size=(3, 3), stride=(1, 1), padding=(1, 1))
  (bn1): BatchNorm2d(256, eps=0.001, momentum=0.03, affine=True, track_running_stats=True)
  (relu): ReLU(inplace=True)
)
Layer 34 is Conv_BN(
  (conv1): Conv2d(256, 128, kernel_size=(3, 3), stride=(1, 1), padding=(1, 1))
  (bn1): BatchNorm2d(128, eps=0.001, momentum=0.03, affine=True, track_running_stats=True)
  (relu): ReLU(inplace=True)
)
Layer 35 is MaxPool(
  (pool): AdaptiveAvgPool2d(output_size=10)
)
Layer 36 is Conv_BN(
  (conv1): Conv2d(128, 64, kernel_size=(3, 3), stride=(1, 1), padding=(1, 1))
  (bn1): BatchNorm2d(64, eps=0.001, momentum=0.03, affine=True, track_running_stats=True)
  (relu): ReLU(inplace=True)
)
Layer 37 is Conv_BN(
  (conv1): Conv2d(64, 32, kernel_size=(3, 3), stride=(1, 1), padding=(1, 1))
  (bn1): BatchNorm2d(32, eps=0.001, momentum=0.03, affine=True, track_running_stats=True)
  (relu): ReLU(inplace=True)
)
Layer 38 is Concat()
Layer 39 is Conv_BN(
  (conv1): Conv2d(64, 16, kernel_size=(3, 3), stride=(1, 1), padding=(1, 1))
  (bn1): BatchNorm2d(16, eps=0.001, momentum=0.03, affine=True, track_running_stats=True)
  (relu): ReLU(inplace=True)
)
Layer 40 is Conv_BN(
  (conv1): Conv2d(16, 1, kernel_size=(3, 3), stride=(1, 1), padding=(1, 1))
  (bn1): BatchNorm2d(1, eps=0.001, momentum=0.03, affine=True, track_running_stats=True)
  (relu): ReLU(inplace=True)
)
Layer 41 is AdaptiveAvgPooling(
  (pool): AdaptiveAvgPool2d(output_size=1)
  (fc1): Linear(in_features=1, out_features=2, bias=True)
  (flat): Flatten(start_dim=1, end_dim=-1)
)
Layer 42 is Detect(
  (cv2): ModuleList(
    (0): Sequential(
      (0): Conv(
        (conv): Conv2d(192, 64, kernel_size=(3, 3), stride=(1, 1), padding=(1, 1), bias=False)
        (bn): BatchNorm2d(64, eps=0.001, momentum=0.03, affine=True, track_running_stats=True)
        (act): SiLU(inplace=True)
      )
      (1): Conv(
        (conv): Conv2d(64, 64, kernel_size=(3, 3), stride=(1, 1), padding=(1, 1), bias=False)
        (bn): BatchNorm2d(64, eps=0.001, momentum=0.03, affine=True, track_running_stats=True)
        (act): SiLU(inplace=True)
      )
      (2): Conv2d(64, 64, kernel_size=(1, 1), stride=(1, 1))
    )
    (1): Sequential(
      (0): Conv(
        (conv): Conv2d(384, 64, kernel_size=(3, 3), stride=(1, 1), padding=(1, 1), bias=False)
        (bn): BatchNorm2d(64, eps=0.001, momentum=0.03, affine=True, track_running_stats=True)
        (act): SiLU(inplace=True)
      )
      (1): Conv(
        (conv): Conv2d(64, 64, kernel_size=(3, 3), stride=(1, 1), padding=(1, 1), bias=False)
        (bn): BatchNorm2d(64, eps=0.001, momentum=0.03, affine=True, track_running_stats=True)
        (act): SiLU(inplace=True)
      )
      (2): Conv2d(64, 64, kernel_size=(1, 1), stride=(1, 1))
    )
    (2): Sequential(
      (0): Conv(
        (conv): Conv2d(576, 64, kernel_size=(3, 3), stride=(1, 1), padding=(1, 1), bias=False)
        (bn): BatchNorm2d(64, eps=0.001, momentum=0.03, affine=True, track_running_stats=True)
        (act): SiLU(inplace=True)
      )
      (1): Conv(
        (conv): Conv2d(64, 64, kernel_size=(3, 3), stride=(1, 1), padding=(1, 1), bias=False)
        (bn): BatchNorm2d(64, eps=0.001, momentum=0.03, affine=True, track_running_stats=True)
        (act): SiLU(inplace=True)
      )
      (2): Conv2d(64, 64, kernel_size=(1, 1), stride=(1, 1))
    )
  )
  (cv3): ModuleList(
    (0): Sequential(
      (0): Conv(
        (conv): Conv2d(192, 192, kernel_size=(3, 3), stride=(1, 1), padding=(1, 1), bias=False)
        (bn): BatchNorm2d(192, eps=0.001, momentum=0.03, affine=True, track_running_stats=True)
        (act): SiLU(inplace=True)
      )
      (1): Conv(
        (conv): Conv2d(192, 192, kernel_size=(3, 3), stride=(1, 1), padding=(1, 1), bias=False)
        (bn): BatchNorm2d(192, eps=0.001, momentum=0.03, affine=True, track_running_stats=True)
        (act): SiLU(inplace=True)
      )
      (2): Conv2d(192, 1, kernel_size=(1, 1), stride=(1, 1))
    )
    (1): Sequential(
      (0): Conv(
        (conv): Conv2d(384, 192, kernel_size=(3, 3), stride=(1, 1), padding=(1, 1), bias=False)
        (bn): BatchNorm2d(192, eps=0.001, momentum=0.03, affine=True, track_running_stats=True)
        (act): SiLU(inplace=True)
      )
      (1): Conv(
        (conv): Conv2d(192, 192, kernel_size=(3, 3), stride=(1, 1), padding=(1, 1), bias=False)
        (bn): BatchNorm2d(192, eps=0.001, momentum=0.03, affine=True, track_running_stats=True)
        (act): SiLU(inplace=True)
      )
      (2): Conv2d(192, 1, kernel_size=(1, 1), stride=(1, 1))
    )
    (2): Sequential(
      (0): Conv(
        (conv): Conv2d(576, 192, kernel_size=(3, 3), stride=(1, 1), padding=(1, 1), bias=False)
        (bn): BatchNorm2d(192, eps=0.001, momentum=0.03, affine=True, track_running_stats=True)
        (act): SiLU(inplace=True)
      )
      (1): Conv(
        (conv): Conv2d(192, 192, kernel_size=(3, 3), stride=(1, 1), padding=(1, 1), bias=False)
        (bn): BatchNorm2d(192, eps=0.001, momentum=0.03, affine=True, track_running_stats=True)
        (act): SiLU(inplace=True)
      )
      (2): Conv2d(192, 1, kernel_size=(1, 1), stride=(1, 1))
    )
  )
  (dfl): DFL(
    (conv): Conv2d(16, 1, kernel_size=(1, 1), stride=(1, 1), bias=False)
  )
)
Layer 22 is GradReversal()
Layer 23 is Conv_BN(
  (conv1): Conv2d(192, 64, kernel_size=(3, 3), stride=(1, 1), padding=(1, 1))
  (bn1): BatchNorm2d(64, eps=0.001, momentum=0.03, affine=True, track_running_stats=True)
  (relu): ReLU(inplace=True)
)
Layer 24 is MaxPool(
  (pool): AdaptiveAvgPool2d(output_size=20)
)
Layer 25 is GradReversal()
Layer 26 is Conv_BN(
  (conv1): Conv2d(384, 128, kernel_size=(3, 3), stride=(1, 1), padding=(1, 1))
  (bn1): BatchNorm2d(128, eps=0.001, momentum=0.03, affine=True, track_running_stats=True)
  (relu): ReLU(inplace=True)
)
Layer 27 is MaxPool(
  (pool): AdaptiveAvgPool2d(output_size=20)
)
Layer 28 is Conv_BN(
  (conv1): Conv2d(128, 64, kernel_size=(3, 3), stride=(1, 1), padding=(1, 1))
  (bn1): BatchNorm2d(64, eps=0.001, momentum=0.03, affine=True, track_running_stats=True)
  (relu): ReLU(inplace=True)
)
Layer 29 is Concat()
Layer 30 is Conv_BN(
  (conv1): Conv2d(128, 32, kernel_size=(3, 3), stride=(1, 1), padding=(1, 1))
  (bn1): BatchNorm2d(32, eps=0.001, momentum=0.03, affine=True, track_running_stats=True)
  (relu): ReLU(inplace=True)
)
Layer 31 is MaxPool(
  (pool): AdaptiveAvgPool2d(output_size=10)
)
Layer 32 is GradReversal()
Layer 33 is Conv_BN(
  (conv1): Conv2d(576, 256, kernel_size=(3, 3), stride=(1, 1), padding=(1, 1))
  (bn1): BatchNorm2d(256, eps=0.001, momentum=0.03, affine=True, track_running_stats=True)
  (relu): ReLU(inplace=True)
)
Layer 34 is Conv_BN(
  (conv1): Conv2d(256, 128, kernel_size=(3, 3), stride=(1, 1), padding=(1, 1))
  (bn1): BatchNorm2d(128, eps=0.001, momentum=0.03, affine=True, track_running_stats=True)
  (relu): ReLU(inplace=True)
)
Layer 35 is MaxPool(
  (pool): AdaptiveAvgPool2d(output_size=10)
)
Layer 36 is Conv_BN(
  (conv1): Conv2d(128, 64, kernel_size=(3, 3), stride=(1, 1), padding=(1, 1))
  (bn1): BatchNorm2d(64, eps=0.001, momentum=0.03, affine=True, track_running_stats=True)
  (relu): ReLU(inplace=True)
)
Layer 37 is Conv_BN(
  (conv1): Conv2d(64, 32, kernel_size=(3, 3), stride=(1, 1), padding=(1, 1))
  (bn1): BatchNorm2d(32, eps=0.001, momentum=0.03, affine=True, track_running_stats=True)
  (relu): ReLU(inplace=True)
)
Layer 38 is Concat()
Layer 39 is Conv_BN(
  (conv1): Conv2d(64, 16, kernel_size=(3, 3), stride=(1, 1), padding=(1, 1))
  (bn1): BatchNorm2d(16, eps=0.001, momentum=0.03, affine=True, track_running_stats=True)
  (relu): ReLU(inplace=True)
)
Layer 40 is Conv_BN(
  (conv1): Conv2d(16, 1, kernel_size=(3, 3), stride=(1, 1), padding=(1, 1))
  (bn1): BatchNorm2d(1, eps=0.001, momentum=0.03, affine=True, track_running_stats=True)
  (relu): ReLU(inplace=True)
)
Layer 41 is AdaptiveAvgPooling(
  (pool): AdaptiveAvgPool2d(output_size=1)
  (fc1): Linear(in_features=1, out_features=2, bias=True)
  (flat): Flatten(start_dim=1, end_dim=-1)
)
Layer 42 is Detect(
  (cv2): ModuleList(
    (0): Sequential(
      (0): Conv(
        (conv): Conv2d(192, 64, kernel_size=(3, 3), stride=(1, 1), padding=(1, 1), bias=False)
        (bn): BatchNorm2d(64, eps=0.001, momentum=0.03, affine=True, track_running_stats=True)
        (act): SiLU(inplace=True)
      )
      (1): Conv(
        (conv): Conv2d(64, 64, kernel_size=(3, 3), stride=(1, 1), padding=(1, 1), bias=False)
        (bn): BatchNorm2d(64, eps=0.001, momentum=0.03, affine=True, track_running_stats=True)
        (act): SiLU(inplace=True)
      )
      (2): Conv2d(64, 64, kernel_size=(1, 1), stride=(1, 1))
    )
    (1): Sequential(
      (0): Conv(
        (conv): Conv2d(384, 64, kernel_size=(3, 3), stride=(1, 1), padding=(1, 1), bias=False)
        (bn): BatchNorm2d(64, eps=0.001, momentum=0.03, affine=True, track_running_stats=True)
        (act): SiLU(inplace=True)
      )
      (1): Conv(
        (conv): Conv2d(64, 64, kernel_size=(3, 3), stride=(1, 1), padding=(1, 1), bias=False)
        (bn): BatchNorm2d(64, eps=0.001, momentum=0.03, affine=True, track_running_stats=True)
        (act): SiLU(inplace=True)
      )
      (2): Conv2d(64, 64, kernel_size=(1, 1), stride=(1, 1))
    )
    (2): Sequential(
      (0): Conv(
        (conv): Conv2d(576, 64, kernel_size=(3, 3), stride=(1, 1), padding=(1, 1), bias=False)
        (bn): BatchNorm2d(64, eps=0.001, momentum=0.03, affine=True, track_running_stats=True)
        (act): SiLU(inplace=True)
      )
      (1): Conv(
        (conv): Conv2d(64, 64, kernel_size=(3, 3), stride=(1, 1), padding=(1, 1), bias=False)
        (bn): BatchNorm2d(64, eps=0.001, momentum=0.03, affine=True, track_running_stats=True)
        (act): SiLU(inplace=True)
      )
      (2): Conv2d(64, 64, kernel_size=(1, 1), stride=(1, 1))
    )
  )
  (cv3): ModuleList(
    (0): Sequential(
      (0): Conv(
        (conv): Conv2d(192, 192, kernel_size=(3, 3), stride=(1, 1), padding=(1, 1), bias=False)
        (bn): BatchNorm2d(192, eps=0.001, momentum=0.03, affine=True, track_running_stats=True)
        (act): SiLU(inplace=True)
      )
      (1): Conv(
        (conv): Conv2d(192, 192, kernel_size=(3, 3), stride=(1, 1), padding=(1, 1), bias=False)
        (bn): BatchNorm2d(192, eps=0.001, momentum=0.03, affine=True, track_running_stats=True)
        (act): SiLU(inplace=True)
      )
      (2): Conv2d(192, 1, kernel_size=(1, 1), stride=(1, 1))
    )
    (1): Sequential(
      (0): Conv(
        (conv): Conv2d(384, 192, kernel_size=(3, 3), stride=(1, 1), padding=(1, 1), bias=False)
        (bn): BatchNorm2d(192, eps=0.001, momentum=0.03, affine=True, track_running_stats=True)
        (act): SiLU(inplace=True)
      )
      (1): Conv(
        (conv): Conv2d(192, 192, kernel_size=(3, 3), stride=(1, 1), padding=(1, 1), bias=False)
        (bn): BatchNorm2d(192, eps=0.001, momentum=0.03, affine=True, track_running_stats=True)
        (act): SiLU(inplace=True)
      )
      (2): Conv2d(192, 1, kernel_size=(1, 1), stride=(1, 1))
    )
    (2): Sequential(
      (0): Conv(
        (conv): Conv2d(576, 192, kernel_size=(3, 3), stride=(1, 1), padding=(1, 1), bias=False)
        (bn): BatchNorm2d(192, eps=0.001, momentum=0.03, affine=True, track_running_stats=True)
        (act): SiLU(inplace=True)
      )
      (1): Conv(
        (conv): Conv2d(192, 192, kernel_size=(3, 3), stride=(1, 1), padding=(1, 1), bias=False)
        (bn): BatchNorm2d(192, eps=0.001, momentum=0.03, affine=True, track_running_stats=True)
        (act): SiLU(inplace=True)
      )
      (2): Conv2d(192, 1, kernel_size=(1, 1), stride=(1, 1))
    )
  )
  (dfl): DFL(
    (conv): Conv2d(16, 1, kernel_size=(1, 1), stride=(1, 1), bias=False)
  )
)
Layer 22 is GradReversal()
Layer 23 is Conv_BN(
  (conv1): Conv2d(192, 64, kernel_size=(3, 3), stride=(1, 1), padding=(1, 1))
  (bn1): BatchNorm2d(64, eps=0.001, momentum=0.03, affine=True, track_running_stats=True)
  (relu): ReLU(inplace=True)
)
Layer 24 is MaxPool(
  (pool): AdaptiveAvgPool2d(output_size=20)
)
Layer 25 is GradReversal()
Layer 26 is Conv_BN(
  (conv1): Conv2d(384, 128, kernel_size=(3, 3), stride=(1, 1), padding=(1, 1))
  (bn1): BatchNorm2d(128, eps=0.001, momentum=0.03, affine=True, track_running_stats=True)
  (relu): ReLU(inplace=True)
)
Layer 27 is MaxPool(
  (pool): AdaptiveAvgPool2d(output_size=20)
)
Layer 28 is Conv_BN(
  (conv1): Conv2d(128, 64, kernel_size=(3, 3), stride=(1, 1), padding=(1, 1))
  (bn1): BatchNorm2d(64, eps=0.001, momentum=0.03, affine=True, track_running_stats=True)
  (relu): ReLU(inplace=True)
)
Layer 29 is Concat()
Layer 30 is Conv_BN(
  (conv1): Conv2d(128, 32, kernel_size=(3, 3), stride=(1, 1), padding=(1, 1))
  (bn1): BatchNorm2d(32, eps=0.001, momentum=0.03, affine=True, track_running_stats=True)
  (relu): ReLU(inplace=True)
)
Layer 31 is MaxPool(
  (pool): AdaptiveAvgPool2d(output_size=10)
)
Layer 32 is GradReversal()
Layer 33 is Conv_BN(
  (conv1): Conv2d(576, 256, kernel_size=(3, 3), stride=(1, 1), padding=(1, 1))
  (bn1): BatchNorm2d(256, eps=0.001, momentum=0.03, affine=True, track_running_stats=True)
  (relu): ReLU(inplace=True)
)
Layer 34 is Conv_BN(
  (conv1): Conv2d(256, 128, kernel_size=(3, 3), stride=(1, 1), padding=(1, 1))
  (bn1): BatchNorm2d(128, eps=0.001, momentum=0.03, affine=True, track_running_stats=True)
  (relu): ReLU(inplace=True)
)
Layer 35 is MaxPool(
  (pool): AdaptiveAvgPool2d(output_size=10)
)
Layer 36 is Conv_BN(
  (conv1): Conv2d(128, 64, kernel_size=(3, 3), stride=(1, 1), padding=(1, 1))
  (bn1): BatchNorm2d(64, eps=0.001, momentum=0.03, affine=True, track_running_stats=True)
  (relu): ReLU(inplace=True)
)
Layer 37 is Conv_BN(
  (conv1): Conv2d(64, 32, kernel_size=(3, 3), stride=(1, 1), padding=(1, 1))
  (bn1): BatchNorm2d(32, eps=0.001, momentum=0.03, affine=True, track_running_stats=True)
  (relu): ReLU(inplace=True)
)
Layer 38 is Concat()
Layer 39 is Conv_BN(
  (conv1): Conv2d(64, 16, kernel_size=(3, 3), stride=(1, 1), padding=(1, 1))
  (bn1): BatchNorm2d(16, eps=0.001, momentum=0.03, affine=True, track_running_stats=True)
  (relu): ReLU(inplace=True)
)
Layer 40 is Conv_BN(
  (conv1): Conv2d(16, 1, kernel_size=(3, 3), stride=(1, 1), padding=(1, 1))
  (bn1): BatchNorm2d(1, eps=0.001, momentum=0.03, affine=True, track_running_stats=True)
  (relu): ReLU(inplace=True)
)
Layer 41 is AdaptiveAvgPooling(
  (pool): AdaptiveAvgPool2d(output_size=1)
  (fc1): Linear(in_features=1, out_features=2, bias=True)
  (flat): Flatten(start_dim=1, end_dim=-1)
)
Layer 42 is Detect(
  (cv2): ModuleList(
    (0): Sequential(
      (0): Conv(
        (conv): Conv2d(192, 64, kernel_size=(3, 3), stride=(1, 1), padding=(1, 1), bias=False)
        (bn): BatchNorm2d(64, eps=0.001, momentum=0.03, affine=True, track_running_stats=True)
        (act): SiLU(inplace=True)
      )
      (1): Conv(
        (conv): Conv2d(64, 64, kernel_size=(3, 3), stride=(1, 1), padding=(1, 1), bias=False)
        (bn): BatchNorm2d(64, eps=0.001, momentum=0.03, affine=True, track_running_stats=True)
        (act): SiLU(inplace=True)
      )
      (2): Conv2d(64, 64, kernel_size=(1, 1), stride=(1, 1))
    )
    (1): Sequential(
      (0): Conv(
        (conv): Conv2d(384, 64, kernel_size=(3, 3), stride=(1, 1), padding=(1, 1), bias=False)
        (bn): BatchNorm2d(64, eps=0.001, momentum=0.03, affine=True, track_running_stats=True)
        (act): SiLU(inplace=True)
      )
      (1): Conv(
        (conv): Conv2d(64, 64, kernel_size=(3, 3), stride=(1, 1), padding=(1, 1), bias=False)
        (bn): BatchNorm2d(64, eps=0.001, momentum=0.03, affine=True, track_running_stats=True)
        (act): SiLU(inplace=True)
      )
      (2): Conv2d(64, 64, kernel_size=(1, 1), stride=(1, 1))
    )
    (2): Sequential(
      (0): Conv(
        (conv): Conv2d(576, 64, kernel_size=(3, 3), stride=(1, 1), padding=(1, 1), bias=False)
        (bn): BatchNorm2d(64, eps=0.001, momentum=0.03, affine=True, track_running_stats=True)
        (act): SiLU(inplace=True)
      )
      (1): Conv(
        (conv): Conv2d(64, 64, kernel_size=(3, 3), stride=(1, 1), padding=(1, 1), bias=False)
        (bn): BatchNorm2d(64, eps=0.001, momentum=0.03, affine=True, track_running_stats=True)
        (act): SiLU(inplace=True)
      )
      (2): Conv2d(64, 64, kernel_size=(1, 1), stride=(1, 1))
    )
  )
  (cv3): ModuleList(
    (0): Sequential(
      (0): Conv(
        (conv): Conv2d(192, 192, kernel_size=(3, 3), stride=(1, 1), padding=(1, 1), bias=False)
        (bn): BatchNorm2d(192, eps=0.001, momentum=0.03, affine=True, track_running_stats=True)
        (act): SiLU(inplace=True)
      )
      (1): Conv(
        (conv): Conv2d(192, 192, kernel_size=(3, 3), stride=(1, 1), padding=(1, 1), bias=False)
        (bn): BatchNorm2d(192, eps=0.001, momentum=0.03, affine=True, track_running_stats=True)
        (act): SiLU(inplace=True)
      )
      (2): Conv2d(192, 1, kernel_size=(1, 1), stride=(1, 1))
    )
    (1): Sequential(
      (0): Conv(
        (conv): Conv2d(384, 192, kernel_size=(3, 3), stride=(1, 1), padding=(1, 1), bias=False)
        (bn): BatchNorm2d(192, eps=0.001, momentum=0.03, affine=True, track_running_stats=True)
        (act): SiLU(inplace=True)
      )
      (1): Conv(
        (conv): Conv2d(192, 192, kernel_size=(3, 3), stride=(1, 1), padding=(1, 1), bias=False)
        (bn): BatchNorm2d(192, eps=0.001, momentum=0.03, affine=True, track_running_stats=True)
        (act): SiLU(inplace=True)
      )
      (2): Conv2d(192, 1, kernel_size=(1, 1), stride=(1, 1))
    )
    (2): Sequential(
      (0): Conv(
        (conv): Conv2d(576, 192, kernel_size=(3, 3), stride=(1, 1), padding=(1, 1), bias=False)
        (bn): BatchNorm2d(192, eps=0.001, momentum=0.03, affine=True, track_running_stats=True)
        (act): SiLU(inplace=True)
      )
      (1): Conv(
        (conv): Conv2d(192, 192, kernel_size=(3, 3), stride=(1, 1), padding=(1, 1), bias=False)
        (bn): BatchNorm2d(192, eps=0.001, momentum=0.03, affine=True, track_running_stats=True)
        (act): SiLU(inplace=True)
      )
      (2): Conv2d(192, 1, kernel_size=(1, 1), stride=(1, 1))
    )
  )
  (dfl): DFL(
    (conv): Conv2d(16, 1, kernel_size=(1, 1), stride=(1, 1), bias=False)
  )
)
Layer 22 is GradReversal()
Layer 23 is Conv_BN(
  (conv1): Conv2d(192, 64, kernel_size=(3, 3), stride=(1, 1), padding=(1, 1))
  (bn1): BatchNorm2d(64, eps=0.001, momentum=0.03, affine=True, track_running_stats=True)
  (relu): ReLU(inplace=True)
)
Layer 24 is MaxPool(
  (pool): AdaptiveAvgPool2d(output_size=20)
)
Layer 25 is GradReversal()
Layer 26 is Conv_BN(
  (conv1): Conv2d(384, 128, kernel_size=(3, 3), stride=(1, 1), padding=(1, 1))
  (bn1): BatchNorm2d(128, eps=0.001, momentum=0.03, affine=True, track_running_stats=True)
  (relu): ReLU(inplace=True)
)
Layer 27 is MaxPool(
  (pool): AdaptiveAvgPool2d(output_size=20)
)
Layer 28 is Conv_BN(
  (conv1): Conv2d(128, 64, kernel_size=(3, 3), stride=(1, 1), padding=(1, 1))
  (bn1): BatchNorm2d(64, eps=0.001, momentum=0.03, affine=True, track_running_stats=True)
  (relu): ReLU(inplace=True)
)
Layer 29 is Concat()
Layer 30 is Conv_BN(
  (conv1): Conv2d(128, 32, kernel_size=(3, 3), stride=(1, 1), padding=(1, 1))
  (bn1): BatchNorm2d(32, eps=0.001, momentum=0.03, affine=True, track_running_stats=True)
  (relu): ReLU(inplace=True)
)
Layer 31 is MaxPool(
  (pool): AdaptiveAvgPool2d(output_size=10)
)
Layer 32 is GradReversal()
Layer 33 is Conv_BN(
  (conv1): Conv2d(576, 256, kernel_size=(3, 3), stride=(1, 1), padding=(1, 1))
  (bn1): BatchNorm2d(256, eps=0.001, momentum=0.03, affine=True, track_running_stats=True)
  (relu): ReLU(inplace=True)
)
Layer 34 is Conv_BN(
  (conv1): Conv2d(256, 128, kernel_size=(3, 3), stride=(1, 1), padding=(1, 1))
  (bn1): BatchNorm2d(128, eps=0.001, momentum=0.03, affine=True, track_running_stats=True)
  (relu): ReLU(inplace=True)
)
Layer 35 is MaxPool(
  (pool): AdaptiveAvgPool2d(output_size=10)
)
Layer 36 is Conv_BN(
  (conv1): Conv2d(128, 64, kernel_size=(3, 3), stride=(1, 1), padding=(1, 1))
  (bn1): BatchNorm2d(64, eps=0.001, momentum=0.03, affine=True, track_running_stats=True)
  (relu): ReLU(inplace=True)
)
Layer 37 is Conv_BN(
  (conv1): Conv2d(64, 32, kernel_size=(3, 3), stride=(1, 1), padding=(1, 1))
  (bn1): BatchNorm2d(32, eps=0.001, momentum=0.03, affine=True, track_running_stats=True)
  (relu): ReLU(inplace=True)
)
Layer 38 is Concat()
Layer 39 is Conv_BN(
  (conv1): Conv2d(64, 16, kernel_size=(3, 3), stride=(1, 1), padding=(1, 1))
  (bn1): BatchNorm2d(16, eps=0.001, momentum=0.03, affine=True, track_running_stats=True)
  (relu): ReLU(inplace=True)
)
Layer 40 is Conv_BN(
  (conv1): Conv2d(16, 1, kernel_size=(3, 3), stride=(1, 1), padding=(1, 1))
  (bn1): BatchNorm2d(1, eps=0.001, momentum=0.03, affine=True, track_running_stats=True)
  (relu): ReLU(inplace=True)
)
Layer 41 is AdaptiveAvgPooling(
  (pool): AdaptiveAvgPool2d(output_size=1)
  (fc1): Linear(in_features=1, out_features=2, bias=True)
  (flat): Flatten(start_dim=1, end_dim=-1)
)
Layer 42 is Detect(
  (cv2): ModuleList(
    (0): Sequential(
      (0): Conv(
        (conv): Conv2d(192, 64, kernel_size=(3, 3), stride=(1, 1), padding=(1, 1), bias=False)
        (bn): BatchNorm2d(64, eps=0.001, momentum=0.03, affine=True, track_running_stats=True)
        (act): SiLU(inplace=True)
      )
      (1): Conv(
        (conv): Conv2d(64, 64, kernel_size=(3, 3), stride=(1, 1), padding=(1, 1), bias=False)
        (bn): BatchNorm2d(64, eps=0.001, momentum=0.03, affine=True, track_running_stats=True)
        (act): SiLU(inplace=True)
      )
      (2): Conv2d(64, 64, kernel_size=(1, 1), stride=(1, 1))
    )
    (1): Sequential(
      (0): Conv(
        (conv): Conv2d(384, 64, kernel_size=(3, 3), stride=(1, 1), padding=(1, 1), bias=False)
        (bn): BatchNorm2d(64, eps=0.001, momentum=0.03, affine=True, track_running_stats=True)
        (act): SiLU(inplace=True)
      )
      (1): Conv(
        (conv): Conv2d(64, 64, kernel_size=(3, 3), stride=(1, 1), padding=(1, 1), bias=False)
        (bn): BatchNorm2d(64, eps=0.001, momentum=0.03, affine=True, track_running_stats=True)
        (act): SiLU(inplace=True)
      )
      (2): Conv2d(64, 64, kernel_size=(1, 1), stride=(1, 1))
    )
    (2): Sequential(
      (0): Conv(
        (conv): Conv2d(576, 64, kernel_size=(3, 3), stride=(1, 1), padding=(1, 1), bias=False)
        (bn): BatchNorm2d(64, eps=0.001, momentum=0.03, affine=True, track_running_stats=True)
        (act): SiLU(inplace=True)
      )
      (1): Conv(
        (conv): Conv2d(64, 64, kernel_size=(3, 3), stride=(1, 1), padding=(1, 1), bias=False)
        (bn): BatchNorm2d(64, eps=0.001, momentum=0.03, affine=True, track_running_stats=True)
        (act): SiLU(inplace=True)
      )
      (2): Conv2d(64, 64, kernel_size=(1, 1), stride=(1, 1))
    )
  )
  (cv3): ModuleList(
    (0): Sequential(
      (0): Conv(
        (conv): Conv2d(192, 192, kernel_size=(3, 3), stride=(1, 1), padding=(1, 1), bias=False)
        (bn): BatchNorm2d(192, eps=0.001, momentum=0.03, affine=True, track_running_stats=True)
        (act): SiLU(inplace=True)
      )
      (1): Conv(
        (conv): Conv2d(192, 192, kernel_size=(3, 3), stride=(1, 1), padding=(1, 1), bias=False)
        (bn): BatchNorm2d(192, eps=0.001, momentum=0.03, affine=True, track_running_stats=True)
        (act): SiLU(inplace=True)
      )
      (2): Conv2d(192, 1, kernel_size=(1, 1), stride=(1, 1))
    )
    (1): Sequential(
      (0): Conv(
        (conv): Conv2d(384, 192, kernel_size=(3, 3), stride=(1, 1), padding=(1, 1), bias=False)
        (bn): BatchNorm2d(192, eps=0.001, momentum=0.03, affine=True, track_running_stats=True)
        (act): SiLU(inplace=True)
      )
      (1): Conv(
        (conv): Conv2d(192, 192, kernel_size=(3, 3), stride=(1, 1), padding=(1, 1), bias=False)
        (bn): BatchNorm2d(192, eps=0.001, momentum=0.03, affine=True, track_running_stats=True)
        (act): SiLU(inplace=True)
      )
      (2): Conv2d(192, 1, kernel_size=(1, 1), stride=(1, 1))
    )
    (2): Sequential(
      (0): Conv(
        (conv): Conv2d(576, 192, kernel_size=(3, 3), stride=(1, 1), padding=(1, 1), bias=False)
        (bn): BatchNorm2d(192, eps=0.001, momentum=0.03, affine=True, track_running_stats=True)
        (act): SiLU(inplace=True)
      )
      (1): Conv(
        (conv): Conv2d(192, 192, kernel_size=(3, 3), stride=(1, 1), padding=(1, 1), bias=False)
        (bn): BatchNorm2d(192, eps=0.001, momentum=0.03, affine=True, track_running_stats=True)
        (act): SiLU(inplace=True)
      )
      (2): Conv2d(192, 1, kernel_size=(1, 1), stride=(1, 1))
    )
  )
  (dfl): DFL(
    (conv): Conv2d(16, 1, kernel_size=(1, 1), stride=(1, 1), bias=False)
  )
)
Layer 22 is GradReversal()
Layer 23 is Conv_BN(
  (conv1): Conv2d(192, 64, kernel_size=(3, 3), stride=(1, 1), padding=(1, 1))
  (bn1): BatchNorm2d(64, eps=0.001, momentum=0.03, affine=True, track_running_stats=True)
  (relu): ReLU(inplace=True)
)
Layer 24 is MaxPool(
  (pool): AdaptiveAvgPool2d(output_size=20)
)
Layer 25 is GradReversal()
Layer 26 is Conv_BN(
  (conv1): Conv2d(384, 128, kernel_size=(3, 3), stride=(1, 1), padding=(1, 1))
  (bn1): BatchNorm2d(128, eps=0.001, momentum=0.03, affine=True, track_running_stats=True)
  (relu): ReLU(inplace=True)
)
Layer 27 is MaxPool(
  (pool): AdaptiveAvgPool2d(output_size=20)
)
Layer 28 is Conv_BN(
  (conv1): Conv2d(128, 64, kernel_size=(3, 3), stride=(1, 1), padding=(1, 1))
  (bn1): BatchNorm2d(64, eps=0.001, momentum=0.03, affine=True, track_running_stats=True)
  (relu): ReLU(inplace=True)
)
Layer 29 is Concat()
Layer 30 is Conv_BN(
  (conv1): Conv2d(128, 32, kernel_size=(3, 3), stride=(1, 1), padding=(1, 1))
  (bn1): BatchNorm2d(32, eps=0.001, momentum=0.03, affine=True, track_running_stats=True)
  (relu): ReLU(inplace=True)
)
Layer 31 is MaxPool(
  (pool): AdaptiveAvgPool2d(output_size=10)
)
Layer 32 is GradReversal()
Layer 33 is Conv_BN(
  (conv1): Conv2d(576, 256, kernel_size=(3, 3), stride=(1, 1), padding=(1, 1))
  (bn1): BatchNorm2d(256, eps=0.001, momentum=0.03, affine=True, track_running_stats=True)
  (relu): ReLU(inplace=True)
)
Layer 34 is Conv_BN(
  (conv1): Conv2d(256, 128, kernel_size=(3, 3), stride=(1, 1), padding=(1, 1))
  (bn1): BatchNorm2d(128, eps=0.001, momentum=0.03, affine=True, track_running_stats=True)
  (relu): ReLU(inplace=True)
)
Layer 35 is MaxPool(
  (pool): AdaptiveAvgPool2d(output_size=10)
)
Layer 36 is Conv_BN(
  (conv1): Conv2d(128, 64, kernel_size=(3, 3), stride=(1, 1), padding=(1, 1))
  (bn1): BatchNorm2d(64, eps=0.001, momentum=0.03, affine=True, track_running_stats=True)
  (relu): ReLU(inplace=True)
)
Layer 37 is Conv_BN(
  (conv1): Conv2d(64, 32, kernel_size=(3, 3), stride=(1, 1), padding=(1, 1))
  (bn1): BatchNorm2d(32, eps=0.001, momentum=0.03, affine=True, track_running_stats=True)
  (relu): ReLU(inplace=True)
)
Layer 38 is Concat()
Layer 39 is Conv_BN(
  (conv1): Conv2d(64, 16, kernel_size=(3, 3), stride=(1, 1), padding=(1, 1))
  (bn1): BatchNorm2d(16, eps=0.001, momentum=0.03, affine=True, track_running_stats=True)
  (relu): ReLU(inplace=True)
)
Layer 40 is Conv_BN(
  (conv1): Conv2d(16, 1, kernel_size=(3, 3), stride=(1, 1), padding=(1, 1))
  (bn1): BatchNorm2d(1, eps=0.001, momentum=0.03, affine=True, track_running_stats=True)
  (relu): ReLU(inplace=True)
)
Layer 41 is AdaptiveAvgPooling(
  (pool): AdaptiveAvgPool2d(output_size=1)
  (fc1): Linear(in_features=1, out_features=2, bias=True)
  (flat): Flatten(start_dim=1, end_dim=-1)
)
Layer 42 is Detect(
  (cv2): ModuleList(
    (0): Sequential(
      (0): Conv(
        (conv): Conv2d(192, 64, kernel_size=(3, 3), stride=(1, 1), padding=(1, 1), bias=False)
        (bn): BatchNorm2d(64, eps=0.001, momentum=0.03, affine=True, track_running_stats=True)
        (act): SiLU(inplace=True)
      )
      (1): Conv(
        (conv): Conv2d(64, 64, kernel_size=(3, 3), stride=(1, 1), padding=(1, 1), bias=False)
        (bn): BatchNorm2d(64, eps=0.001, momentum=0.03, affine=True, track_running_stats=True)
        (act): SiLU(inplace=True)
      )
      (2): Conv2d(64, 64, kernel_size=(1, 1), stride=(1, 1))
    )
    (1): Sequential(
      (0): Conv(
        (conv): Conv2d(384, 64, kernel_size=(3, 3), stride=(1, 1), padding=(1, 1), bias=False)
        (bn): BatchNorm2d(64, eps=0.001, momentum=0.03, affine=True, track_running_stats=True)
        (act): SiLU(inplace=True)
      )
      (1): Conv(
        (conv): Conv2d(64, 64, kernel_size=(3, 3), stride=(1, 1), padding=(1, 1), bias=False)
        (bn): BatchNorm2d(64, eps=0.001, momentum=0.03, affine=True, track_running_stats=True)
        (act): SiLU(inplace=True)
      )
      (2): Conv2d(64, 64, kernel_size=(1, 1), stride=(1, 1))
    )
    (2): Sequential(
      (0): Conv(
        (conv): Conv2d(576, 64, kernel_size=(3, 3), stride=(1, 1), padding=(1, 1), bias=False)
        (bn): BatchNorm2d(64, eps=0.001, momentum=0.03, affine=True, track_running_stats=True)
        (act): SiLU(inplace=True)
      )
      (1): Conv(
        (conv): Conv2d(64, 64, kernel_size=(3, 3), stride=(1, 1), padding=(1, 1), bias=False)
        (bn): BatchNorm2d(64, eps=0.001, momentum=0.03, affine=True, track_running_stats=True)
        (act): SiLU(inplace=True)
      )
      (2): Conv2d(64, 64, kernel_size=(1, 1), stride=(1, 1))
    )
  )
  (cv3): ModuleList(
    (0): Sequential(
      (0): Conv(
        (conv): Conv2d(192, 192, kernel_size=(3, 3), stride=(1, 1), padding=(1, 1), bias=False)
        (bn): BatchNorm2d(192, eps=0.001, momentum=0.03, affine=True, track_running_stats=True)
        (act): SiLU(inplace=True)
      )
      (1): Conv(
        (conv): Conv2d(192, 192, kernel_size=(3, 3), stride=(1, 1), padding=(1, 1), bias=False)
        (bn): BatchNorm2d(192, eps=0.001, momentum=0.03, affine=True, track_running_stats=True)
        (act): SiLU(inplace=True)
      )
      (2): Conv2d(192, 1, kernel_size=(1, 1), stride=(1, 1))
    )
    (1): Sequential(
      (0): Conv(
        (conv): Conv2d(384, 192, kernel_size=(3, 3), stride=(1, 1), padding=(1, 1), bias=False)
        (bn): BatchNorm2d(192, eps=0.001, momentum=0.03, affine=True, track_running_stats=True)
        (act): SiLU(inplace=True)
      )
      (1): Conv(
        (conv): Conv2d(192, 192, kernel_size=(3, 3), stride=(1, 1), padding=(1, 1), bias=False)
        (bn): BatchNorm2d(192, eps=0.001, momentum=0.03, affine=True, track_running_stats=True)
        (act): SiLU(inplace=True)
      )
      (2): Conv2d(192, 1, kernel_size=(1, 1), stride=(1, 1))
    )
    (2): Sequential(
      (0): Conv(
        (conv): Conv2d(576, 192, kernel_size=(3, 3), stride=(1, 1), padding=(1, 1), bias=False)
        (bn): BatchNorm2d(192, eps=0.001, momentum=0.03, affine=True, track_running_stats=True)
        (act): SiLU(inplace=True)
      )
      (1): Conv(
        (conv): Conv2d(192, 192, kernel_size=(3, 3), stride=(1, 1), padding=(1, 1), bias=False)
        (bn): BatchNorm2d(192, eps=0.001, momentum=0.03, affine=True, track_running_stats=True)
        (act): SiLU(inplace=True)
      )
      (2): Conv2d(192, 1, kernel_size=(1, 1), stride=(1, 1))
    )
  )
  (dfl): DFL(
    (conv): Conv2d(16, 1, kernel_size=(1, 1), stride=(1, 1), bias=False)
  )
)
Layer 22 is GradReversal()
Layer 23 is Conv_BN(
  (conv1): Conv2d(192, 64, kernel_size=(3, 3), stride=(1, 1), padding=(1, 1))
  (bn1): BatchNorm2d(64, eps=0.001, momentum=0.03, affine=True, track_running_stats=True)
  (relu): ReLU(inplace=True)
)
Layer 24 is MaxPool(
  (pool): AdaptiveAvgPool2d(output_size=20)
)
Layer 25 is GradReversal()
Layer 26 is Conv_BN(
  (conv1): Conv2d(384, 128, kernel_size=(3, 3), stride=(1, 1), padding=(1, 1))
  (bn1): BatchNorm2d(128, eps=0.001, momentum=0.03, affine=True, track_running_stats=True)
  (relu): ReLU(inplace=True)
)
Layer 27 is MaxPool(
  (pool): AdaptiveAvgPool2d(output_size=20)
)
Layer 28 is Conv_BN(
  (conv1): Conv2d(128, 64, kernel_size=(3, 3), stride=(1, 1), padding=(1, 1))
  (bn1): BatchNorm2d(64, eps=0.001, momentum=0.03, affine=True, track_running_stats=True)
  (relu): ReLU(inplace=True)
)
Layer 29 is Concat()
Layer 30 is Conv_BN(
  (conv1): Conv2d(128, 32, kernel_size=(3, 3), stride=(1, 1), padding=(1, 1))
  (bn1): BatchNorm2d(32, eps=0.001, momentum=0.03, affine=True, track_running_stats=True)
  (relu): ReLU(inplace=True)
)
Layer 31 is MaxPool(
  (pool): AdaptiveAvgPool2d(output_size=10)
)
Layer 32 is GradReversal()
Layer 33 is Conv_BN(
  (conv1): Conv2d(576, 256, kernel_size=(3, 3), stride=(1, 1), padding=(1, 1))
  (bn1): BatchNorm2d(256, eps=0.001, momentum=0.03, affine=True, track_running_stats=True)
  (relu): ReLU(inplace=True)
)
Layer 34 is Conv_BN(
  (conv1): Conv2d(256, 128, kernel_size=(3, 3), stride=(1, 1), padding=(1, 1))
  (bn1): BatchNorm2d(128, eps=0.001, momentum=0.03, affine=True, track_running_stats=True)
  (relu): ReLU(inplace=True)
)
Layer 35 is MaxPool(
  (pool): AdaptiveAvgPool2d(output_size=10)
)
Layer 36 is Conv_BN(
  (conv1): Conv2d(128, 64, kernel_size=(3, 3), stride=(1, 1), padding=(1, 1))
  (bn1): BatchNorm2d(64, eps=0.001, momentum=0.03, affine=True, track_running_stats=True)
  (relu): ReLU(inplace=True)
)
Layer 37 is Conv_BN(
  (conv1): Conv2d(64, 32, kernel_size=(3, 3), stride=(1, 1), padding=(1, 1))
  (bn1): BatchNorm2d(32, eps=0.001, momentum=0.03, affine=True, track_running_stats=True)
  (relu): ReLU(inplace=True)
)
Layer 38 is Concat()
Layer 39 is Conv_BN(
  (conv1): Conv2d(64, 16, kernel_size=(3, 3), stride=(1, 1), padding=(1, 1))
  (bn1): BatchNorm2d(16, eps=0.001, momentum=0.03, affine=True, track_running_stats=True)
  (relu): ReLU(inplace=True)
)
Layer 40 is Conv_BN(
  (conv1): Conv2d(16, 1, kernel_size=(3, 3), stride=(1, 1), padding=(1, 1))
  (bn1): BatchNorm2d(1, eps=0.001, momentum=0.03, affine=True, track_running_stats=True)
  (relu): ReLU(inplace=True)
)
Layer 41 is AdaptiveAvgPooling(
  (pool): AdaptiveAvgPool2d(output_size=1)
  (fc1): Linear(in_features=1, out_features=2, bias=True)
  (flat): Flatten(start_dim=1, end_dim=-1)
)
Layer 42 is Detect(
  (cv2): ModuleList(
    (0): Sequential(
      (0): Conv(
        (conv): Conv2d(192, 64, kernel_size=(3, 3), stride=(1, 1), padding=(1, 1), bias=False)
        (bn): BatchNorm2d(64, eps=0.001, momentum=0.03, affine=True, track_running_stats=True)
        (act): SiLU(inplace=True)
      )
      (1): Conv(
        (conv): Conv2d(64, 64, kernel_size=(3, 3), stride=(1, 1), padding=(1, 1), bias=False)
        (bn): BatchNorm2d(64, eps=0.001, momentum=0.03, affine=True, track_running_stats=True)
        (act): SiLU(inplace=True)
      )
      (2): Conv2d(64, 64, kernel_size=(1, 1), stride=(1, 1))
    )
    (1): Sequential(
      (0): Conv(
        (conv): Conv2d(384, 64, kernel_size=(3, 3), stride=(1, 1), padding=(1, 1), bias=False)
        (bn): BatchNorm2d(64, eps=0.001, momentum=0.03, affine=True, track_running_stats=True)
        (act): SiLU(inplace=True)
      )
      (1): Conv(
        (conv): Conv2d(64, 64, kernel_size=(3, 3), stride=(1, 1), padding=(1, 1), bias=False)
        (bn): BatchNorm2d(64, eps=0.001, momentum=0.03, affine=True, track_running_stats=True)
        (act): SiLU(inplace=True)
      )
      (2): Conv2d(64, 64, kernel_size=(1, 1), stride=(1, 1))
    )
    (2): Sequential(
      (0): Conv(
        (conv): Conv2d(576, 64, kernel_size=(3, 3), stride=(1, 1), padding=(1, 1), bias=False)
        (bn): BatchNorm2d(64, eps=0.001, momentum=0.03, affine=True, track_running_stats=True)
        (act): SiLU(inplace=True)
      )
      (1): Conv(
        (conv): Conv2d(64, 64, kernel_size=(3, 3), stride=(1, 1), padding=(1, 1), bias=False)
        (bn): BatchNorm2d(64, eps=0.001, momentum=0.03, affine=True, track_running_stats=True)
        (act): SiLU(inplace=True)
      )
      (2): Conv2d(64, 64, kernel_size=(1, 1), stride=(1, 1))
    )
  )
  (cv3): ModuleList(
    (0): Sequential(
      (0): Conv(
        (conv): Conv2d(192, 192, kernel_size=(3, 3), stride=(1, 1), padding=(1, 1), bias=False)
        (bn): BatchNorm2d(192, eps=0.001, momentum=0.03, affine=True, track_running_stats=True)
        (act): SiLU(inplace=True)
      )
      (1): Conv(
        (conv): Conv2d(192, 192, kernel_size=(3, 3), stride=(1, 1), padding=(1, 1), bias=False)
        (bn): BatchNorm2d(192, eps=0.001, momentum=0.03, affine=True, track_running_stats=True)
        (act): SiLU(inplace=True)
      )
      (2): Conv2d(192, 1, kernel_size=(1, 1), stride=(1, 1))
    )
    (1): Sequential(
      (0): Conv(
        (conv): Conv2d(384, 192, kernel_size=(3, 3), stride=(1, 1), padding=(1, 1), bias=False)
        (bn): BatchNorm2d(192, eps=0.001, momentum=0.03, affine=True, track_running_stats=True)
        (act): SiLU(inplace=True)
      )
      (1): Conv(
        (conv): Conv2d(192, 192, kernel_size=(3, 3), stride=(1, 1), padding=(1, 1), bias=False)
        (bn): BatchNorm2d(192, eps=0.001, momentum=0.03, affine=True, track_running_stats=True)
        (act): SiLU(inplace=True)
      )
      (2): Conv2d(192, 1, kernel_size=(1, 1), stride=(1, 1))
    )
    (2): Sequential(
      (0): Conv(
        (conv): Conv2d(576, 192, kernel_size=(3, 3), stride=(1, 1), padding=(1, 1), bias=False)
        (bn): BatchNorm2d(192, eps=0.001, momentum=0.03, affine=True, track_running_stats=True)
        (act): SiLU(inplace=True)
      )
      (1): Conv(
        (conv): Conv2d(192, 192, kernel_size=(3, 3), stride=(1, 1), padding=(1, 1), bias=False)
        (bn): BatchNorm2d(192, eps=0.001, momentum=0.03, affine=True, track_running_stats=True)
        (act): SiLU(inplace=True)
      )
      (2): Conv2d(192, 1, kernel_size=(1, 1), stride=(1, 1))
    )
  )
  (dfl): DFL(
    (conv): Conv2d(16, 1, kernel_size=(1, 1), stride=(1, 1), bias=False)
  )
)
Layer 22 is GradReversal()
Layer 23 is Conv_BN(
  (conv1): Conv2d(192, 64, kernel_size=(3, 3), stride=(1, 1), padding=(1, 1))
  (bn1): BatchNorm2d(64, eps=0.001, momentum=0.03, affine=True, track_running_stats=True)
  (relu): ReLU(inplace=True)
)
Layer 24 is MaxPool(
  (pool): AdaptiveAvgPool2d(output_size=20)
)
Layer 25 is GradReversal()
Layer 26 is Conv_BN(
  (conv1): Conv2d(384, 128, kernel_size=(3, 3), stride=(1, 1), padding=(1, 1))
  (bn1): BatchNorm2d(128, eps=0.001, momentum=0.03, affine=True, track_running_stats=True)
  (relu): ReLU(inplace=True)
)
Layer 27 is MaxPool(
  (pool): AdaptiveAvgPool2d(output_size=20)
)
Layer 28 is Conv_BN(
  (conv1): Conv2d(128, 64, kernel_size=(3, 3), stride=(1, 1), padding=(1, 1))
  (bn1): BatchNorm2d(64, eps=0.001, momentum=0.03, affine=True, track_running_stats=True)
  (relu): ReLU(inplace=True)
)
Layer 29 is Concat()
Layer 30 is Conv_BN(
  (conv1): Conv2d(128, 32, kernel_size=(3, 3), stride=(1, 1), padding=(1, 1))
  (bn1): BatchNorm2d(32, eps=0.001, momentum=0.03, affine=True, track_running_stats=True)
  (relu): ReLU(inplace=True)
)
Layer 31 is MaxPool(
  (pool): AdaptiveAvgPool2d(output_size=10)
)
Layer 32 is GradReversal()
Layer 33 is Conv_BN(
  (conv1): Conv2d(576, 256, kernel_size=(3, 3), stride=(1, 1), padding=(1, 1))
  (bn1): BatchNorm2d(256, eps=0.001, momentum=0.03, affine=True, track_running_stats=True)
  (relu): ReLU(inplace=True)
)
Layer 34 is Conv_BN(
  (conv1): Conv2d(256, 128, kernel_size=(3, 3), stride=(1, 1), padding=(1, 1))
  (bn1): BatchNorm2d(128, eps=0.001, momentum=0.03, affine=True, track_running_stats=True)
  (relu): ReLU(inplace=True)
)
Layer 35 is MaxPool(
  (pool): AdaptiveAvgPool2d(output_size=10)
)
Layer 36 is Conv_BN(
  (conv1): Conv2d(128, 64, kernel_size=(3, 3), stride=(1, 1), padding=(1, 1))
  (bn1): BatchNorm2d(64, eps=0.001, momentum=0.03, affine=True, track_running_stats=True)
  (relu): ReLU(inplace=True)
)
Layer 37 is Conv_BN(
  (conv1): Conv2d(64, 32, kernel_size=(3, 3), stride=(1, 1), padding=(1, 1))
  (bn1): BatchNorm2d(32, eps=0.001, momentum=0.03, affine=True, track_running_stats=True)
  (relu): ReLU(inplace=True)
)
Layer 38 is Concat()
Layer 39 is Conv_BN(
  (conv1): Conv2d(64, 16, kernel_size=(3, 3), stride=(1, 1), padding=(1, 1))
  (bn1): BatchNorm2d(16, eps=0.001, momentum=0.03, affine=True, track_running_stats=True)
  (relu): ReLU(inplace=True)
)
Layer 40 is Conv_BN(
  (conv1): Conv2d(16, 1, kernel_size=(3, 3), stride=(1, 1), padding=(1, 1))
  (bn1): BatchNorm2d(1, eps=0.001, momentum=0.03, affine=True, track_running_stats=True)
  (relu): ReLU(inplace=True)
)
Layer 41 is AdaptiveAvgPooling(
  (pool): AdaptiveAvgPool2d(output_size=1)
  (fc1): Linear(in_features=1, out_features=2, bias=True)
  (flat): Flatten(start_dim=1, end_dim=-1)
)
Layer 42 is Detect(
  (cv2): ModuleList(
    (0): Sequential(
      (0): Conv(
        (conv): Conv2d(192, 64, kernel_size=(3, 3), stride=(1, 1), padding=(1, 1), bias=False)
        (bn): BatchNorm2d(64, eps=0.001, momentum=0.03, affine=True, track_running_stats=True)
        (act): SiLU(inplace=True)
      )
      (1): Conv(
        (conv): Conv2d(64, 64, kernel_size=(3, 3), stride=(1, 1), padding=(1, 1), bias=False)
        (bn): BatchNorm2d(64, eps=0.001, momentum=0.03, affine=True, track_running_stats=True)
        (act): SiLU(inplace=True)
      )
      (2): Conv2d(64, 64, kernel_size=(1, 1), stride=(1, 1))
    )
    (1): Sequential(
      (0): Conv(
        (conv): Conv2d(384, 64, kernel_size=(3, 3), stride=(1, 1), padding=(1, 1), bias=False)
        (bn): BatchNorm2d(64, eps=0.001, momentum=0.03, affine=True, track_running_stats=True)
        (act): SiLU(inplace=True)
      )
      (1): Conv(
        (conv): Conv2d(64, 64, kernel_size=(3, 3), stride=(1, 1), padding=(1, 1), bias=False)
        (bn): BatchNorm2d(64, eps=0.001, momentum=0.03, affine=True, track_running_stats=True)
        (act): SiLU(inplace=True)
      )
      (2): Conv2d(64, 64, kernel_size=(1, 1), stride=(1, 1))
    )
    (2): Sequential(
      (0): Conv(
        (conv): Conv2d(576, 64, kernel_size=(3, 3), stride=(1, 1), padding=(1, 1), bias=False)
        (bn): BatchNorm2d(64, eps=0.001, momentum=0.03, affine=True, track_running_stats=True)
        (act): SiLU(inplace=True)
      )
      (1): Conv(
        (conv): Conv2d(64, 64, kernel_size=(3, 3), stride=(1, 1), padding=(1, 1), bias=False)
        (bn): BatchNorm2d(64, eps=0.001, momentum=0.03, affine=True, track_running_stats=True)
        (act): SiLU(inplace=True)
      )
      (2): Conv2d(64, 64, kernel_size=(1, 1), stride=(1, 1))
    )
  )
  (cv3): ModuleList(
    (0): Sequential(
      (0): Conv(
        (conv): Conv2d(192, 192, kernel_size=(3, 3), stride=(1, 1), padding=(1, 1), bias=False)
        (bn): BatchNorm2d(192, eps=0.001, momentum=0.03, affine=True, track_running_stats=True)
        (act): SiLU(inplace=True)
      )
      (1): Conv(
        (conv): Conv2d(192, 192, kernel_size=(3, 3), stride=(1, 1), padding=(1, 1), bias=False)
        (bn): BatchNorm2d(192, eps=0.001, momentum=0.03, affine=True, track_running_stats=True)
        (act): SiLU(inplace=True)
      )
      (2): Conv2d(192, 1, kernel_size=(1, 1), stride=(1, 1))
    )
    (1): Sequential(
      (0): Conv(
        (conv): Conv2d(384, 192, kernel_size=(3, 3), stride=(1, 1), padding=(1, 1), bias=False)
        (bn): BatchNorm2d(192, eps=0.001, momentum=0.03, affine=True, track_running_stats=True)
        (act): SiLU(inplace=True)
      )
      (1): Conv(
        (conv): Conv2d(192, 192, kernel_size=(3, 3), stride=(1, 1), padding=(1, 1), bias=False)
        (bn): BatchNorm2d(192, eps=0.001, momentum=0.03, affine=True, track_running_stats=True)
        (act): SiLU(inplace=True)
      )
      (2): Conv2d(192, 1, kernel_size=(1, 1), stride=(1, 1))
    )
    (2): Sequential(
      (0): Conv(
        (conv): Conv2d(576, 192, kernel_size=(3, 3), stride=(1, 1), padding=(1, 1), bias=False)
        (bn): BatchNorm2d(192, eps=0.001, momentum=0.03, affine=True, track_running_stats=True)
        (act): SiLU(inplace=True)
      )
      (1): Conv(
        (conv): Conv2d(192, 192, kernel_size=(3, 3), stride=(1, 1), padding=(1, 1), bias=False)
        (bn): BatchNorm2d(192, eps=0.001, momentum=0.03, affine=True, track_running_stats=True)
        (act): SiLU(inplace=True)
      )
      (2): Conv2d(192, 1, kernel_size=(1, 1), stride=(1, 1))
    )
  )
  (dfl): DFL(
    (conv): Conv2d(16, 1, kernel_size=(1, 1), stride=(1, 1), bias=False)
  )
)
Layer 22 is GradReversal()
Layer 23 is Conv_BN(
  (conv1): Conv2d(192, 64, kernel_size=(3, 3), stride=(1, 1), padding=(1, 1))
  (bn1): BatchNorm2d(64, eps=0.001, momentum=0.03, affine=True, track_running_stats=True)
  (relu): ReLU(inplace=True)
)
Layer 24 is MaxPool(
  (pool): AdaptiveAvgPool2d(output_size=20)
)
Layer 25 is GradReversal()
Layer 26 is Conv_BN(
  (conv1): Conv2d(384, 128, kernel_size=(3, 3), stride=(1, 1), padding=(1, 1))
  (bn1): BatchNorm2d(128, eps=0.001, momentum=0.03, affine=True, track_running_stats=True)
  (relu): ReLU(inplace=True)
)
Layer 27 is MaxPool(
  (pool): AdaptiveAvgPool2d(output_size=20)
)
Layer 28 is Conv_BN(
  (conv1): Conv2d(128, 64, kernel_size=(3, 3), stride=(1, 1), padding=(1, 1))
  (bn1): BatchNorm2d(64, eps=0.001, momentum=0.03, affine=True, track_running_stats=True)
  (relu): ReLU(inplace=True)
)
Layer 29 is Concat()
Layer 30 is Conv_BN(
  (conv1): Conv2d(128, 32, kernel_size=(3, 3), stride=(1, 1), padding=(1, 1))
  (bn1): BatchNorm2d(32, eps=0.001, momentum=0.03, affine=True, track_running_stats=True)
  (relu): ReLU(inplace=True)
)
Layer 31 is MaxPool(
  (pool): AdaptiveAvgPool2d(output_size=10)
)
Layer 32 is GradReversal()
Layer 33 is Conv_BN(
  (conv1): Conv2d(576, 256, kernel_size=(3, 3), stride=(1, 1), padding=(1, 1))
  (bn1): BatchNorm2d(256, eps=0.001, momentum=0.03, affine=True, track_running_stats=True)
  (relu): ReLU(inplace=True)
)
Layer 34 is Conv_BN(
  (conv1): Conv2d(256, 128, kernel_size=(3, 3), stride=(1, 1), padding=(1, 1))
  (bn1): BatchNorm2d(128, eps=0.001, momentum=0.03, affine=True, track_running_stats=True)
  (relu): ReLU(inplace=True)
)
Layer 35 is MaxPool(
  (pool): AdaptiveAvgPool2d(output_size=10)
)
Layer 36 is Conv_BN(
  (conv1): Conv2d(128, 64, kernel_size=(3, 3), stride=(1, 1), padding=(1, 1))
  (bn1): BatchNorm2d(64, eps=0.001, momentum=0.03, affine=True, track_running_stats=True)
  (relu): ReLU(inplace=True)
)
Layer 37 is Conv_BN(
  (conv1): Conv2d(64, 32, kernel_size=(3, 3), stride=(1, 1), padding=(1, 1))
  (bn1): BatchNorm2d(32, eps=0.001, momentum=0.03, affine=True, track_running_stats=True)
  (relu): ReLU(inplace=True)
)
Layer 38 is Concat()
Layer 39 is Conv_BN(
  (conv1): Conv2d(64, 16, kernel_size=(3, 3), stride=(1, 1), padding=(1, 1))
  (bn1): BatchNorm2d(16, eps=0.001, momentum=0.03, affine=True, track_running_stats=True)
  (relu): ReLU(inplace=True)
)
Layer 40 is Conv_BN(
  (conv1): Conv2d(16, 1, kernel_size=(3, 3), stride=(1, 1), padding=(1, 1))
  (bn1): BatchNorm2d(1, eps=0.001, momentum=0.03, affine=True, track_running_stats=True)
  (relu): ReLU(inplace=True)
)
Layer 41 is AdaptiveAvgPooling(
  (pool): AdaptiveAvgPool2d(output_size=1)
  (fc1): Linear(in_features=1, out_features=2, bias=True)
  (flat): Flatten(start_dim=1, end_dim=-1)
)
Layer 42 is Detect(
  (cv2): ModuleList(
    (0): Sequential(
      (0): Conv(
        (conv): Conv2d(192, 64, kernel_size=(3, 3), stride=(1, 1), padding=(1, 1), bias=False)
        (bn): BatchNorm2d(64, eps=0.001, momentum=0.03, affine=True, track_running_stats=True)
        (act): SiLU(inplace=True)
      )
      (1): Conv(
        (conv): Conv2d(64, 64, kernel_size=(3, 3), stride=(1, 1), padding=(1, 1), bias=False)
        (bn): BatchNorm2d(64, eps=0.001, momentum=0.03, affine=True, track_running_stats=True)
        (act): SiLU(inplace=True)
      )
      (2): Conv2d(64, 64, kernel_size=(1, 1), stride=(1, 1))
    )
    (1): Sequential(
      (0): Conv(
        (conv): Conv2d(384, 64, kernel_size=(3, 3), stride=(1, 1), padding=(1, 1), bias=False)
        (bn): BatchNorm2d(64, eps=0.001, momentum=0.03, affine=True, track_running_stats=True)
        (act): SiLU(inplace=True)
      )
      (1): Conv(
        (conv): Conv2d(64, 64, kernel_size=(3, 3), stride=(1, 1), padding=(1, 1), bias=False)
        (bn): BatchNorm2d(64, eps=0.001, momentum=0.03, affine=True, track_running_stats=True)
        (act): SiLU(inplace=True)
      )
      (2): Conv2d(64, 64, kernel_size=(1, 1), stride=(1, 1))
    )
    (2): Sequential(
      (0): Conv(
        (conv): Conv2d(576, 64, kernel_size=(3, 3), stride=(1, 1), padding=(1, 1), bias=False)
        (bn): BatchNorm2d(64, eps=0.001, momentum=0.03, affine=True, track_running_stats=True)
        (act): SiLU(inplace=True)
      )
      (1): Conv(
        (conv): Conv2d(64, 64, kernel_size=(3, 3), stride=(1, 1), padding=(1, 1), bias=False)
        (bn): BatchNorm2d(64, eps=0.001, momentum=0.03, affine=True, track_running_stats=True)
        (act): SiLU(inplace=True)
      )
      (2): Conv2d(64, 64, kernel_size=(1, 1), stride=(1, 1))
    )
  )
  (cv3): ModuleList(
    (0): Sequential(
      (0): Conv(
        (conv): Conv2d(192, 192, kernel_size=(3, 3), stride=(1, 1), padding=(1, 1), bias=False)
        (bn): BatchNorm2d(192, eps=0.001, momentum=0.03, affine=True, track_running_stats=True)
        (act): SiLU(inplace=True)
      )
      (1): Conv(
        (conv): Conv2d(192, 192, kernel_size=(3, 3), stride=(1, 1), padding=(1, 1), bias=False)
        (bn): BatchNorm2d(192, eps=0.001, momentum=0.03, affine=True, track_running_stats=True)
        (act): SiLU(inplace=True)
      )
      (2): Conv2d(192, 1, kernel_size=(1, 1), stride=(1, 1))
    )
    (1): Sequential(
      (0): Conv(
        (conv): Conv2d(384, 192, kernel_size=(3, 3), stride=(1, 1), padding=(1, 1), bias=False)
        (bn): BatchNorm2d(192, eps=0.001, momentum=0.03, affine=True, track_running_stats=True)
        (act): SiLU(inplace=True)
      )
      (1): Conv(
        (conv): Conv2d(192, 192, kernel_size=(3, 3), stride=(1, 1), padding=(1, 1), bias=False)
        (bn): BatchNorm2d(192, eps=0.001, momentum=0.03, affine=True, track_running_stats=True)
        (act): SiLU(inplace=True)
      )
      (2): Conv2d(192, 1, kernel_size=(1, 1), stride=(1, 1))
    )
    (2): Sequential(
      (0): Conv(
        (conv): Conv2d(576, 192, kernel_size=(3, 3), stride=(1, 1), padding=(1, 1), bias=False)
        (bn): BatchNorm2d(192, eps=0.001, momentum=0.03, affine=True, track_running_stats=True)
        (act): SiLU(inplace=True)
      )
      (1): Conv(
        (conv): Conv2d(192, 192, kernel_size=(3, 3), stride=(1, 1), padding=(1, 1), bias=False)
        (bn): BatchNorm2d(192, eps=0.001, momentum=0.03, affine=True, track_running_stats=True)
        (act): SiLU(inplace=True)
      )
      (2): Conv2d(192, 1, kernel_size=(1, 1), stride=(1, 1))
    )
  )
  (dfl): DFL(
    (conv): Conv2d(16, 1, kernel_size=(1, 1), stride=(1, 1), bias=False)
  )
)
Layer 22 is GradReversal()
Layer 23 is Conv_BN(
  (conv1): Conv2d(192, 64, kernel_size=(3, 3), stride=(1, 1), padding=(1, 1))
  (bn1): BatchNorm2d(64, eps=0.001, momentum=0.03, affine=True, track_running_stats=True)
…
  (bn1): BatchNorm2d(32, eps=0.001, momentum=0.03, affine=True, track_running_stats=True)
  (relu): ReLU(inplace=True)
)
Layer 38 is Concat()
Layer 39 is Conv_BN(
  (conv1): Conv2d(64, 16, kernel_size=(3, 3), stride=(1, 1), padding=(1, 1))
  (bn1): BatchNorm2d(16, eps=0.001, momentum=0.03, affine=True, track_running_stats=True)
  (relu): ReLU(inplace=True)
)
Layer 40 is Conv_BN(
  (conv1): Conv2d(16, 1, kernel_size=(3, 3), stride=(1, 1), padding=(1, 1))
  (bn1): BatchNorm2d(1, eps=0.001, momentum=0.03, affine=True, track_running_stats=True)
  (relu): ReLU(inplace=True)
)
Layer 41 is AdaptiveAvgPooling(
  (pool): AdaptiveAvgPool2d(output_size=1)
  (fc1): Linear(in_features=1, out_features=2, bias=True)
  (flat): Flatten(start_dim=1, end_dim=-1)
)
Layer 42 is Detect(
  (cv2): ModuleList(
    (0): Sequential(
      (0): Conv(
        (conv): Conv2d(192, 64, kernel_size=(3, 3), stride=(1, 1), padding=(1, 1), bias=False)
        (bn): BatchNorm2d(64, eps=0.001, momentum=0.03, affine=True, track_running_stats=True)
        (act): SiLU(inplace=True)
      )
      (1): Conv(
        (conv): Conv2d(64, 64, kernel_size=(3, 3), stride=(1, 1), padding=(1, 1), bias=False)
        (bn): BatchNorm2d(64, eps=0.001, momentum=0.03, affine=True, track_running_stats=True)
        (act): SiLU(inplace=True)
      )
      (2): Conv2d(64, 64, kernel_size=(1, 1), stride=(1, 1))
    )
    (1): Sequential(
      (0): Conv(
        (conv): Conv2d(384, 64, kernel_size=(3, 3), stride=(1, 1), padding=(1, 1), bias=False)
        (bn): BatchNorm2d(64, eps=0.001, momentum=0.03, affine=True, track_running_stats=True)
        (act): SiLU(inplace=True)
      )
      (1): Conv(
        (conv): Conv2d(64, 64, kernel_size=(3, 3), stride=(1, 1), padding=(1, 1), bias=False)
        (bn): BatchNorm2d(64, eps=0.001, momentum=0.03, affine=True, track_running_stats=True)
        (act): SiLU(inplace=True)
      )
      (2): Conv2d(64, 64, kernel_size=(1, 1), stride=(1, 1))
    )
    (2): Sequential(
      (0): Conv(
        (conv): Conv2d(576, 64, kernel_size=(3, 3), stride=(1, 1), padding=(1, 1), bias=False)
        (bn): BatchNorm2d(64, eps=0.001, momentum=0.03, affine=True, track_running_stats=True)
        (act): SiLU(inplace=True)
      )
      (1): Conv(
        (conv): Conv2d(64, 64, kernel_size=(3, 3), stride=(1, 1), padding=(1, 1), bias=False)
        (bn): BatchNorm2d(64, eps=0.001, momentum=0.03, affine=True, track_running_stats=True)
        (act): SiLU(inplace=True)
      )
      (2): Conv2d(64, 64, kernel_size=(1, 1), stride=(1, 1))
    )
  )
  (cv3): ModuleList(
    (0): Sequential(
      (0): Conv(
        (conv): Conv2d(192, 192, kernel_size=(3, 3), stride=(1, 1), padding=(1, 1), bias=False)
        (bn): BatchNorm2d(192, eps=0.001, momentum=0.03, affine=True, track_running_stats=True)
        (act): SiLU(inplace=True)
      )
      (1): Conv(
        (conv): Conv2d(192, 192, kernel_size=(3, 3), stride=(1, 1), padding=(1, 1), bias=False)
        (bn): BatchNorm2d(192, eps=0.001, momentum=0.03, affine=True, track_running_stats=True)
        (act): SiLU(inplace=True)
      )
      (2): Conv2d(192, 1, kernel_size=(1, 1), stride=(1, 1))
    )
    (1): Sequential(
      (0): Conv(
        (conv): Conv2d(384, 192, kernel_size=(3, 3), stride=(1, 1), padding=(1, 1), bias=False)
        (bn): BatchNorm2d(192, eps=0.001, momentum=0.03, affine=True, track_running_stats=True)
        (act): SiLU(inplace=True)
      )
      (1): Conv(
        (conv): Conv2d(192, 192, kernel_size=(3, 3), stride=(1, 1), padding=(1, 1), bias=False)
        (bn): BatchNorm2d(192, eps=0.001, momentum=0.03, affine=True, track_running_stats=True)
        (act): SiLU(inplace=True)
      )
      (2): Conv2d(192, 1, kernel_size=(1, 1), stride=(1, 1))
    )
    (2): Sequential(
      (0): Conv(
        (conv): Conv2d(576, 192, kernel_size=(3, 3), stride=(1, 1), padding=(1, 1), bias=False)
        (bn): BatchNorm2d(192, eps=0.001, momentum=0.03, affine=True, track_running_stats=True)
        (act): SiLU(inplace=True)
      )
      (1): Conv(
        (conv): Conv2d(192, 192, kernel_size=(3, 3), stride=(1, 1), padding=(1, 1), bias=False)
        (bn): BatchNorm2d(192, eps=0.001, momentum=0.03, affine=True, track_running_stats=True)
        (act): SiLU(inplace=True)
      )
      (2): Conv2d(192, 1, kernel_size=(1, 1), stride=(1, 1))
    )
  )
  (dfl): DFL(
    (conv): Conv2d(16, 1, kernel_size=(1, 1), stride=(1, 1), bias=False)
  )
)
Layer 22 is GradReversal()
Layer 23 is Conv_BN(
  (conv1): Conv2d(192, 64, kernel_size=(3, 3), stride=(1, 1), padding=(1, 1))
  (bn1): BatchNorm2d(64, eps=0.001, momentum=0.03, affine=True, track_running_stats=True)
  (relu): ReLU(inplace=True)
)
Layer 24 is MaxPool(
  (pool): AdaptiveAvgPool2d(output_size=20)
)
Layer 25 is GradReversal()
Layer 26 is Conv_BN(
  (conv1): Conv2d(384, 128, kernel_size=(3, 3), stride=(1, 1), padding=(1, 1))
  (bn1): BatchNorm2d(128, eps=0.001, momentum=0.03, affine=True, track_running_stats=True)
  (relu): ReLU(inplace=True)
)
Layer 27 is MaxPool(
  (pool): AdaptiveAvgPool2d(output_size=20)
)
Layer 28 is Conv_BN(
  (conv1): Conv2d(128, 64, kernel_size=(3, 3), stride=(1, 1), padding=(1, 1))
  (bn1): BatchNorm2d(64, eps=0.001, momentum=0.03, affine=True, track_running_stats=True)
  (relu): ReLU(inplace=True)
)
Layer 29 is Concat()
Layer 30 is Conv_BN(
  (conv1): Conv2d(128, 32, kernel_size=(3, 3), stride=(1, 1), padding=(1, 1))
  (bn1): BatchNorm2d(32, eps=0.001, momentum=0.03, affine=True, track_running_stats=True)
  (relu): ReLU(inplace=True)
)
Layer 31 is MaxPool(
  (pool): AdaptiveAvgPool2d(output_size=10)
)
Layer 32 is GradReversal()
Layer 33 is Conv_BN(
  (conv1): Conv2d(576, 256, kernel_size=(3, 3), stride=(1, 1), padding=(1, 1))
  (bn1): BatchNorm2d(256, eps=0.001, momentum=0.03, affine=True, track_running_stats=True)
  (relu): ReLU(inplace=True)
)
Layer 34 is Conv_BN(
  (conv1): Conv2d(256, 128, kernel_size=(3, 3), stride=(1, 1), padding=(1, 1))
  (bn1): BatchNorm2d(128, eps=0.001, momentum=0.03, affine=True, track_running_stats=True)
  (relu): ReLU(inplace=True)
)
Layer 35 is MaxPool(
  (pool): AdaptiveAvgPool2d(output_size=10)
)
Layer 36 is Conv_BN(
  (conv1): Conv2d(128, 64, kernel_size=(3, 3), stride=(1, 1), padding=(1, 1))
  (bn1): BatchNorm2d(64, eps=0.001, momentum=0.03, affine=True, track_running_stats=True)
  (relu): ReLU(inplace=True)
)
Layer 37 is Conv_BN(
  (conv1): Conv2d(64, 32, kernel_size=(3, 3), stride=(1, 1), padding=(1, 1))
  (bn1): BatchNorm2d(32, eps=0.001, momentum=0.03, affine=True, track_running_stats=True)
  (relu): ReLU(inplace=True)
)
Layer 38 is Concat()
Layer 39 is Conv_BN(
  (conv1): Conv2d(64, 16, kernel_size=(3, 3), stride=(1, 1), padding=(1, 1))
  (bn1): BatchNorm2d(16, eps=0.001, momentum=0.03, affine=True, track_running_stats=True)
  (relu): ReLU(inplace=True)
)
Layer 40 is Conv_BN(
  (conv1): Conv2d(16, 1, kernel_size=(3, 3), stride=(1, 1), padding=(1, 1))
  (bn1): BatchNorm2d(1, eps=0.001, momentum=0.03, affine=True, track_running_stats=True)
  (relu): ReLU(inplace=True)
)
Layer 41 is AdaptiveAvgPooling(
  (pool): AdaptiveAvgPool2d(output_size=1)
  (fc1): Linear(in_features=1, out_features=2, bias=True)
  (flat): Flatten(start_dim=1, end_dim=-1)
)
Layer 42 is Detect(
  (cv2): ModuleList(
    (0): Sequential(
      (0): Conv(
        (conv): Conv2d(192, 64, kernel_size=(3, 3), stride=(1, 1), padding=(1, 1), bias=False)
        (bn): BatchNorm2d(64, eps=0.001, momentum=0.03, affine=True, track_running_stats=True)
        (act): SiLU(inplace=True)
      )
      (1): Conv(
        (conv): Conv2d(64, 64, kernel_size=(3, 3), stride=(1, 1), padding=(1, 1), bias=False)
        (bn): BatchNorm2d(64, eps=0.001, momentum=0.03, affine=True, track_running_stats=True)
        (act): SiLU(inplace=True)
      )
      (2): Conv2d(64, 64, kernel_size=(1, 1), stride=(1, 1))
    )
    (1): Sequential(
      (0): Conv(
        (conv): Conv2d(384, 64, kernel_size=(3, 3), stride=(1, 1), padding=(1, 1), bias=False)
        (bn): BatchNorm2d(64, eps=0.001, momentum=0.03, affine=True, track_running_stats=True)
        (act): SiLU(inplace=True)
      )
      (1): Conv(
        (conv): Conv2d(64, 64, kernel_size=(3, 3), stride=(1, 1), padding=(1, 1), bias=False)
        (bn): BatchNorm2d(64, eps=0.001, momentum=0.03, affine=True, track_running_stats=True)
        (act): SiLU(inplace=True)
      )
      (2): Conv2d(64, 64, kernel_size=(1, 1), stride=(1, 1))
    )
    (2): Sequential(
      (0): Conv(
        (conv): Conv2d(576, 64, kernel_size=(3, 3), stride=(1, 1), padding=(1, 1), bias=False)
        (bn): BatchNorm2d(64, eps=0.001, momentum=0.03, affine=True, track_running_stats=True)
        (act): SiLU(inplace=True)
      )
      (1): Conv(
        (conv): Conv2d(64, 64, kernel_size=(3, 3), stride=(1, 1), padding=(1, 1), bias=False)
        (bn): BatchNorm2d(64, eps=0.001, momentum=0.03, affine=True, track_running_stats=True)
        (act): SiLU(inplace=True)
      )
      (2): Conv2d(64, 64, kernel_size=(1, 1), stride=(1, 1))
    )
  )
  (cv3): ModuleList(
    (0): Sequential(
      (0): Conv(
        (conv): Conv2d(192, 192, kernel_size=(3, 3), stride=(1, 1), padding=(1, 1), bias=False)
        (bn): BatchNorm2d(192, eps=0.001, momentum=0.03, affine=True, track_running_stats=True)
        (act): SiLU(inplace=True)
      )
      (1): Conv(
        (conv): Conv2d(192, 192, kernel_size=(3, 3), stride=(1, 1), padding=(1, 1), bias=False)
        (bn): BatchNorm2d(192, eps=0.001, momentum=0.03, affine=True, track_running_stats=True)
        (act): SiLU(inplace=True)
      )
      (2): Conv2d(192, 1, kernel_size=(1, 1), stride=(1, 1))
    )
    (1): Sequential(
      (0): Conv(
        (conv): Conv2d(384, 192, kernel_size=(3, 3), stride=(1, 1), padding=(1, 1), bias=False)
        (bn): BatchNorm2d(192, eps=0.001, momentum=0.03, affine=True, track_running_stats=True)
        (act): SiLU(inplace=True)
      )
      (1): Conv(
        (conv): Conv2d(192, 192, kernel_size=(3, 3), stride=(1, 1), padding=(1, 1), bias=False)
        (bn): BatchNorm2d(192, eps=0.001, momentum=0.03, affine=True, track_running_stats=True)
        (act): SiLU(inplace=True)
      )
      (2): Conv2d(192, 1, kernel_size=(1, 1), stride=(1, 1))
    )
    (2): Sequential(
      (0): Conv(
        (conv): Conv2d(576, 192, kernel_size=(3, 3), stride=(1, 1), padding=(1, 1), bias=False)
        (bn): BatchNorm2d(192, eps=0.001, momentum=0.03, affine=True, track_running_stats=True)
        (act): SiLU(inplace=True)
      )
      (1): Conv(
        (conv): Conv2d(192, 192, kernel_size=(3, 3), stride=(1, 1), padding=(1, 1), bias=False)
        (bn): BatchNorm2d(192, eps=0.001, momentum=0.03, affine=True, track_running_stats=True)
        (act): SiLU(inplace=True)
      )
      (2): Conv2d(192, 1, kernel_size=(1, 1), stride=(1, 1))
    )
  )
  (dfl): DFL(
    (conv): Conv2d(16, 1, kernel_size=(1, 1), stride=(1, 1), bias=False)
  )
)
Layer 22 is GradReversal()
Layer 23 is Conv_BN(
  (conv1): Conv2d(192, 64, kernel_size=(3, 3), stride=(1, 1), padding=(1, 1))
  (bn1): BatchNorm2d(64, eps=0.001, momentum=0.03, affine=True, track_running_stats=True)
  (relu): ReLU(inplace=True)
)
Layer 24 is MaxPool(
  (pool): AdaptiveAvgPool2d(output_size=20)
)
Layer 25 is GradReversal()
Layer 26 is Conv_BN(
  (conv1): Conv2d(384, 128, kernel_size=(3, 3), stride=(1, 1), padding=(1, 1))
  (bn1): BatchNorm2d(128, eps=0.001, momentum=0.03, affine=True, track_running_stats=True)
  (relu): ReLU(inplace=True)
)
Layer 27 is MaxPool(
  (pool): AdaptiveAvgPool2d(output_size=20)
)
Layer 28 is Conv_BN(
  (conv1): Conv2d(128, 64, kernel_size=(3, 3), stride=(1, 1), padding=(1, 1))
  (bn1): BatchNorm2d(64, eps=0.001, momentum=0.03, affine=True, track_running_stats=True)
  (relu): ReLU(inplace=True)
)
Layer 29 is Concat()
Layer 30 is Conv_BN(
  (conv1): Conv2d(128, 32, kernel_size=(3, 3), stride=(1, 1), padding=(1, 1))
  (bn1): BatchNorm2d(32, eps=0.001, momentum=0.03, affine=True, track_running_stats=True)
  (relu): ReLU(inplace=True)
)
Layer 31 is MaxPool(
  (pool): AdaptiveAvgPool2d(output_size=10)
)
Layer 32 is GradReversal()
Layer 33 is Conv_BN(
  (conv1): Conv2d(576, 256, kernel_size=(3, 3), stride=(1, 1), padding=(1, 1))
  (bn1): BatchNorm2d(256, eps=0.001, momentum=0.03, affine=True, track_running_stats=True)
  (relu): ReLU(inplace=True)
)
Layer 34 is Conv_BN(
  (conv1): Conv2d(256, 128, kernel_size=(3, 3), stride=(1, 1), padding=(1, 1))
  (bn1): BatchNorm2d(128, eps=0.001, momentum=0.03, affine=True, track_running_stats=True)
  (relu): ReLU(inplace=True)
)
Layer 35 is MaxPool(
  (pool): AdaptiveAvgPool2d(output_size=10)
)
Layer 36 is Conv_BN(
  (conv1): Conv2d(128, 64, kernel_size=(3, 3), stride=(1, 1), padding=(1, 1))
  (bn1): BatchNorm2d(64, eps=0.001, momentum=0.03, affine=True, track_running_stats=True)
  (relu): ReLU(inplace=True)
)
Layer 37 is Conv_BN(
  (conv1): Conv2d(64, 32, kernel_size=(3, 3), stride=(1, 1), padding=(1, 1))
  (bn1): BatchNorm2d(32, eps=0.001, momentum=0.03, affine=True, track_running_stats=True)
  (relu): ReLU(inplace=True)
)
Layer 38 is Concat()
Layer 39 is Conv_BN(
  (conv1): Conv2d(64, 16, kernel_size=(3, 3), stride=(1, 1), padding=(1, 1))
  (bn1): BatchNorm2d(16, eps=0.001, momentum=0.03, affine=True, track_running_stats=True)
  (relu): ReLU(inplace=True)
)
Layer 40 is Conv_BN(
  (conv1): Conv2d(16, 1, kernel_size=(3, 3), stride=(1, 1), padding=(1, 1))
  (bn1): BatchNorm2d(1, eps=0.001, momentum=0.03, affine=True, track_running_stats=True)
  (relu): ReLU(inplace=True)
)
Layer 41 is AdaptiveAvgPooling(
  (pool): AdaptiveAvgPool2d(output_size=1)
  (fc1): Linear(in_features=1, out_features=2, bias=True)
  (flat): Flatten(start_dim=1, end_dim=-1)
)
Layer 42 is Detect(
  (cv2): ModuleList(
    (0): Sequential(
      (0): Conv(
        (conv): Conv2d(192, 64, kernel_size=(3, 3), stride=(1, 1), padding=(1, 1), bias=False)
        (bn): BatchNorm2d(64, eps=0.001, momentum=0.03, affine=True, track_running_stats=True)
        (act): SiLU(inplace=True)
      )
      (1): Conv(
        (conv): Conv2d(64, 64, kernel_size=(3, 3), stride=(1, 1), padding=(1, 1), bias=False)
        (bn): BatchNorm2d(64, eps=0.001, momentum=0.03, affine=True, track_running_stats=True)
        (act): SiLU(inplace=True)
      )
      (2): Conv2d(64, 64, kernel_size=(1, 1), stride=(1, 1))
    )
    (1): Sequential(
      (0): Conv(
        (conv): Conv2d(384, 64, kernel_size=(3, 3), stride=(1, 1), padding=(1, 1), bias=False)
        (bn): BatchNorm2d(64, eps=0.001, momentum=0.03, affine=True, track_running_stats=True)
        (act): SiLU(inplace=True)
      )
      (1): Conv(
        (conv): Conv2d(64, 64, kernel_size=(3, 3), stride=(1, 1), padding=(1, 1), bias=False)
        (bn): BatchNorm2d(64, eps=0.001, momentum=0.03, affine=True, track_running_stats=True)
        (act): SiLU(inplace=True)
      )
      (2): Conv2d(64, 64, kernel_size=(1, 1), stride=(1, 1))
    )
    (2): Sequential(
      (0): Conv(
        (conv): Conv2d(576, 64, kernel_size=(3, 3), stride=(1, 1), padding=(1, 1), bias=False)
        (bn): BatchNorm2d(64, eps=0.001, momentum=0.03, affine=True, track_running_stats=True)
        (act): SiLU(inplace=True)
      )
      (1): Conv(
        (conv): Conv2d(64, 64, kernel_size=(3, 3), stride=(1, 1), padding=(1, 1), bias=False)
        (bn): BatchNorm2d(64, eps=0.001, momentum=0.03, affine=True, track_running_stats=True)
        (act): SiLU(inplace=True)
      )
      (2): Conv2d(64, 64, kernel_size=(1, 1), stride=(1, 1))
    )
  )
  (cv3): ModuleList(
    (0): Sequential(
      (0): Conv(
        (conv): Conv2d(192, 192, kernel_size=(3, 3), stride=(1, 1), padding=(1, 1), bias=False)
        (bn): BatchNorm2d(192, eps=0.001, momentum=0.03, affine=True, track_running_stats=True)
        (act): SiLU(inplace=True)
      )
      (1): Conv(
        (conv): Conv2d(192, 192, kernel_size=(3, 3), stride=(1, 1), padding=(1, 1), bias=False)
        (bn): BatchNorm2d(192, eps=0.001, momentum=0.03, affine=True, track_running_stats=True)
        (act): SiLU(inplace=True)
      )
      (2): Conv2d(192, 1, kernel_size=(1, 1), stride=(1, 1))
    )
    (1): Sequential(
      (0): Conv(
        (conv): Conv2d(384, 192, kernel_size=(3, 3), stride=(1, 1), padding=(1, 1), bias=False)
        (bn): BatchNorm2d(192, eps=0.001, momentum=0.03, affine=True, track_running_stats=True)
        (act): SiLU(inplace=True)
      )
      (1): Conv(
        (conv): Conv2d(192, 192, kernel_size=(3, 3), stride=(1, 1), padding=(1, 1), bias=False)
        (bn): BatchNorm2d(192, eps=0.001, momentum=0.03, affine=True, track_running_stats=True)
        (act): SiLU(inplace=True)
      )
      (2): Conv2d(192, 1, kernel_size=(1, 1), stride=(1, 1))
    )
    (2): Sequential(
      (0): Conv(
        (conv): Conv2d(576, 192, kernel_size=(3, 3), stride=(1, 1), padding=(1, 1), bias=False)
        (bn): BatchNorm2d(192, eps=0.001, momentum=0.03, affine=True, track_running_stats=True)
        (act): SiLU(inplace=True)
      )
      (1): Conv(
        (conv): Conv2d(192, 192, kernel_size=(3, 3), stride=(1, 1), padding=(1, 1), bias=False)
        (bn): BatchNorm2d(192, eps=0.001, momentum=0.03, affine=True, track_running_stats=True)
        (act): SiLU(inplace=True)
      )
      (2): Conv2d(192, 1, kernel_size=(1, 1), stride=(1, 1))
    )
  )
  (dfl): DFL(
    (conv): Conv2d(16, 1, kernel_size=(1, 1), stride=(1, 1), bias=False)
  )
)
Layer 22 is GradReversal()
Layer 23 is Conv_BN(
  (conv1): Conv2d(192, 64, kernel_size=(3, 3), stride=(1, 1), padding=(1, 1))
  (bn1): BatchNorm2d(64, eps=0.001, momentum=0.03, affine=True, track_running_stats=True)
  (relu): ReLU(inplace=True)
)
Layer 24 is MaxPool(
  (pool): AdaptiveAvgPool2d(output_size=20)
)
Layer 25 is GradReversal()
Layer 26 is Conv_BN(
  (conv1): Conv2d(384, 128, kernel_size=(3, 3), stride=(1, 1), padding=(1, 1))
  (bn1): BatchNorm2d(128, eps=0.001, momentum=0.03, affine=True, track_running_stats=True)
  (relu): ReLU(inplace=True)
)
Layer 27 is MaxPool(
  (pool): AdaptiveAvgPool2d(output_size=20)
)
Layer 28 is Conv_BN(
  (conv1): Conv2d(128, 64, kernel_size=(3, 3), stride=(1, 1), padding=(1, 1))
  (bn1): BatchNorm2d(64, eps=0.001, momentum=0.03, affine=True, track_running_stats=True)
  (relu): ReLU(inplace=True)
)
Layer 29 is Concat()
Layer 30 is Conv_BN(
  (conv1): Conv2d(128, 32, kernel_size=(3, 3), stride=(1, 1), padding=(1, 1))
  (bn1): BatchNorm2d(32, eps=0.001, momentum=0.03, affine=True, track_running_stats=True)
  (relu): ReLU(inplace=True)
)
Layer 31 is MaxPool(
  (pool): AdaptiveAvgPool2d(output_size=10)
)
Layer 32 is GradReversal()
Layer 33 is Conv_BN(
  (conv1): Conv2d(576, 256, kernel_size=(3, 3), stride=(1, 1), padding=(1, 1))
  (bn1): BatchNorm2d(256, eps=0.001, momentum=0.03, affine=True, track_running_stats=True)
  (relu): ReLU(inplace=True)
)
Layer 34 is Conv_BN(
  (conv1): Conv2d(256, 128, kernel_size=(3, 3), stride=(1, 1), padding=(1, 1))
  (bn1): BatchNorm2d(128, eps=0.001, momentum=0.03, affine=True, track_running_stats=True)
  (relu): ReLU(inplace=True)
)
Layer 35 is MaxPool(
  (pool): AdaptiveAvgPool2d(output_size=10)
)
Layer 36 is Conv_BN(
  (conv1): Conv2d(128, 64, kernel_size=(3, 3), stride=(1, 1), padding=(1, 1))
  (bn1): BatchNorm2d(64, eps=0.001, momentum=0.03, affine=True, track_running_stats=True)
  (relu): ReLU(inplace=True)
)
Layer 37 is Conv_BN(
  (conv1): Conv2d(64, 32, kernel_size=(3, 3), stride=(1, 1), padding=(1, 1))
  (bn1): BatchNorm2d(32, eps=0.001, momentum=0.03, affine=True, track_running_stats=True)
  (relu): ReLU(inplace=True)
)
Layer 38 is Concat()
Layer 39 is Conv_BN(
  (conv1): Conv2d(64, 16, kernel_size=(3, 3), stride=(1, 1), padding=(1, 1))
  (bn1): BatchNorm2d(16, eps=0.001, momentum=0.03, affine=True, track_running_stats=True)
  (relu): ReLU(inplace=True)
)
Layer 40 is Conv_BN(
  (conv1): Conv2d(16, 1, kernel_size=(3, 3), stride=(1, 1), padding=(1, 1))
  (bn1): BatchNorm2d(1, eps=0.001, momentum=0.03, affine=True, track_running_stats=True)
  (relu): ReLU(inplace=True)
)
Layer 41 is AdaptiveAvgPooling(
  (pool): AdaptiveAvgPool2d(output_size=1)
  (fc1): Linear(in_features=1, out_features=2, bias=True)
  (flat): Flatten(start_dim=1, end_dim=-1)
)
Layer 42 is Detect(
  (cv2): ModuleList(
    (0): Sequential(
      (0): Conv(
        (conv): Conv2d(192, 64, kernel_size=(3, 3), stride=(1, 1), padding=(1, 1), bias=False)
        (bn): BatchNorm2d(64, eps=0.001, momentum=0.03, affine=True, track_running_stats=True)
        (act): SiLU(inplace=True)
      )
      (1): Conv(
        (conv): Conv2d(64, 64, kernel_size=(3, 3), stride=(1, 1), padding=(1, 1), bias=False)
        (bn): BatchNorm2d(64, eps=0.001, momentum=0.03, affine=True, track_running_stats=True)
        (act): SiLU(inplace=True)
      )
      (2): Conv2d(64, 64, kernel_size=(1, 1), stride=(1, 1))
    )
    (1): Sequential(
      (0): Conv(
        (conv): Conv2d(384, 64, kernel_size=(3, 3), stride=(1, 1), padding=(1, 1), bias=False)
        (bn): BatchNorm2d(64, eps=0.001, momentum=0.03, affine=True, track_running_stats=True)
        (act): SiLU(inplace=True)
      )
      (1): Conv(
        (conv): Conv2d(64, 64, kernel_size=(3, 3), stride=(1, 1), padding=(1, 1), bias=False)
        (bn): BatchNorm2d(64, eps=0.001, momentum=0.03, affine=True, track_running_stats=True)
        (act): SiLU(inplace=True)
      )
      (2): Conv2d(64, 64, kernel_size=(1, 1), stride=(1, 1))
    )
    (2): Sequential(
      (0): Conv(
        (conv): Conv2d(576, 64, kernel_size=(3, 3), stride=(1, 1), padding=(1, 1), bias=False)
        (bn): BatchNorm2d(64, eps=0.001, momentum=0.03, affine=True, track_running_stats=True)
        (act): SiLU(inplace=True)
      )
      (1): Conv(
        (conv): Conv2d(64, 64, kernel_size=(3, 3), stride=(1, 1), padding=(1, 1), bias=False)
        (bn): BatchNorm2d(64, eps=0.001, momentum=0.03, affine=True, track_running_stats=True)
        (act): SiLU(inplace=True)
      )
      (2): Conv2d(64, 64, kernel_size=(1, 1), stride=(1, 1))
    )
  )
  (cv3): ModuleList(
    (0): Sequential(
      (0): Conv(
        (conv): Conv2d(192, 192, kernel_size=(3, 3), stride=(1, 1), padding=(1, 1), bias=False)
        (bn): BatchNorm2d(192, eps=0.001, momentum=0.03, affine=True, track_running_stats=True)
        (act): SiLU(inplace=True)
      )
      (1): Conv(
        (conv): Conv2d(192, 192, kernel_size=(3, 3), stride=(1, 1), padding=(1, 1), bias=False)
        (bn): BatchNorm2d(192, eps=0.001, momentum=0.03, affine=True, track_running_stats=True)
        (act): SiLU(inplace=True)
      )
      (2): Conv2d(192, 1, kernel_size=(1, 1), stride=(1, 1))
    )
    (1): Sequential(
      (0): Conv(
        (conv): Conv2d(384, 192, kernel_size=(3, 3), stride=(1, 1), padding=(1, 1), bias=False)
        (bn): BatchNorm2d(192, eps=0.001, momentum=0.03, affine=True, track_running_stats=True)
        (act): SiLU(inplace=True)
      )
      (1): Conv(
        (conv): Conv2d(192, 192, kernel_size=(3, 3), stride=(1, 1), padding=(1, 1), bias=False)
        (bn): BatchNorm2d(192, eps=0.001, momentum=0.03, affine=True, track_running_stats=True)
        (act): SiLU(inplace=True)
      )
      (2): Conv2d(192, 1, kernel_size=(1, 1), stride=(1, 1))
    )
    (2): Sequential(
      (0): Conv(
        (conv): Conv2d(576, 192, kernel_size=(3, 3), stride=(1, 1), padding=(1, 1), bias=False)
        (bn): BatchNorm2d(192, eps=0.001, momentum=0.03, affine=True, track_running_stats=True)
        (act): SiLU(inplace=True)
      )
      (1): Conv(
        (conv): Conv2d(192, 192, kernel_size=(3, 3), stride=(1, 1), padding=(1, 1), bias=False)
        (bn): BatchNorm2d(192, eps=0.001, momentum=0.03, affine=True, track_running_stats=True)
        (act): SiLU(inplace=True)
      )
      (2): Conv2d(192, 1, kernel_size=(1, 1), stride=(1, 1))
    )
  )
  (dfl): DFL(
    (conv): Conv2d(16, 1, kernel_size=(1, 1), stride=(1, 1), bias=False)
  )
)
Layer 22 is GradReversal()
Layer 23 is Conv_BN(
  (conv1): Conv2d(192, 64, kernel_size=(3, 3), stride=(1, 1), padding=(1, 1))
  (bn1): BatchNorm2d(64, eps=0.001, momentum=0.03, affine=True, track_running_stats=True)
  (relu): ReLU(inplace=True)
)
Layer 24 is MaxPool(
  (pool): AdaptiveAvgPool2d(output_size=20)
)
Layer 25 is GradReversal()
Layer 26 is Conv_BN(
  (conv1): Conv2d(384, 128, kernel_size=(3, 3), stride=(1, 1), padding=(1, 1))
  (bn1): BatchNorm2d(128, eps=0.001, momentum=0.03, affine=True, track_running_stats=True)
  (relu): ReLU(inplace=True)
)
Layer 27 is MaxPool(
  (pool): AdaptiveAvgPool2d(output_size=20)
)
Layer 28 is Conv_BN(
  (conv1): Conv2d(128, 64, kernel_size=(3, 3), stride=(1, 1), padding=(1, 1))
  (bn1): BatchNorm2d(64, eps=0.001, momentum=0.03, affine=True, track_running_stats=True)
  (relu): ReLU(inplace=True)
)
Layer 29 is Concat()
Layer 30 is Conv_BN(
  (conv1): Conv2d(128, 32, kernel_size=(3, 3), stride=(1, 1), padding=(1, 1))
  (bn1): BatchNorm2d(32, eps=0.001, momentum=0.03, affine=True, track_running_stats=True)
  (relu): ReLU(inplace=True)
)
Layer 31 is MaxPool(
  (pool): AdaptiveAvgPool2d(output_size=10)
)
Layer 32 is GradReversal()
Layer 33 is Conv_BN(
  (conv1): Conv2d(576, 256, kernel_size=(3, 3), stride=(1, 1), padding=(1, 1))
  (bn1): BatchNorm2d(256, eps=0.001, momentum=0.03, affine=True, track_running_stats=True)
  (relu): ReLU(inplace=True)
)
Layer 34 is Conv_BN(
  (conv1): Conv2d(256, 128, kernel_size=(3, 3), stride=(1, 1), padding=(1, 1))
  (bn1): BatchNorm2d(128, eps=0.001, momentum=0.03, affine=True, track_running_stats=True)
  (relu): ReLU(inplace=True)
)
Layer 35 is MaxPool(
  (pool): AdaptiveAvgPool2d(output_size=10)
)
Layer 36 is Conv_BN(
  (conv1): Conv2d(128, 64, kernel_size=(3, 3), stride=(1, 1), padding=(1, 1))
  (bn1): BatchNorm2d(64, eps=0.001, momentum=0.03, affine=True, track_running_stats=True)
  (relu): ReLU(inplace=True)
)
Layer 37 is Conv_BN(
  (conv1): Conv2d(64, 32, kernel_size=(3, 3), stride=(1, 1), padding=(1, 1))
  (bn1): BatchNorm2d(32, eps=0.001, momentum=0.03, affine=True, track_running_stats=True)
  (relu): ReLU(inplace=True)
)
Layer 38 is Concat()
Layer 39 is Conv_BN(
  (conv1): Conv2d(64, 16, kernel_size=(3, 3), stride=(1, 1), padding=(1, 1))
  (bn1): BatchNorm2d(16, eps=0.001, momentum=0.03, affine=True, track_running_stats=True)
  (relu): ReLU(inplace=True)
)
Layer 40 is Conv_BN(
  (conv1): Conv2d(16, 1, kernel_size=(3, 3), stride=(1, 1), padding=(1, 1))
  (bn1): BatchNorm2d(1, eps=0.001, momentum=0.03, affine=True, track_running_stats=True)
  (relu): ReLU(inplace=True)
)
Layer 41 is AdaptiveAvgPooling(
  (pool): AdaptiveAvgPool2d(output_size=1)
  (fc1): Linear(in_features=1, out_features=2, bias=True)
  (flat): Flatten(start_dim=1, end_dim=-1)
)
Layer 42 is Detect(
  (cv2): ModuleList(
    (0): Sequential(
      (0): Conv(
        (conv): Conv2d(192, 64, kernel_size=(3, 3), stride=(1, 1), padding=(1, 1), bias=False)
        (bn): BatchNorm2d(64, eps=0.001, momentum=0.03, affine=True, track_running_stats=True)
        (act): SiLU(inplace=True)
      )
      (1): Conv(
        (conv): Conv2d(64, 64, kernel_size=(3, 3), stride=(1, 1), padding=(1, 1), bias=False)
        (bn): BatchNorm2d(64, eps=0.001, momentum=0.03, affine=True, track_running_stats=True)
        (act): SiLU(inplace=True)
      )
      (2): Conv2d(64, 64, kernel_size=(1, 1), stride=(1, 1))
    )
    (1): Sequential(
      (0): Conv(
        (conv): Conv2d(384, 64, kernel_size=(3, 3), stride=(1, 1), padding=(1, 1), bias=False)
        (bn): BatchNorm2d(64, eps=0.001, momentum=0.03, affine=True, track_running_stats=True)
        (act): SiLU(inplace=True)
      )
      (1): Conv(
        (conv): Conv2d(64, 64, kernel_size=(3, 3), stride=(1, 1), padding=(1, 1), bias=False)
        (bn): BatchNorm2d(64, eps=0.001, momentum=0.03, affine=True, track_running_stats=True)
        (act): SiLU(inplace=True)
      )
      (2): Conv2d(64, 64, kernel_size=(1, 1), stride=(1, 1))
    )
    (2): Sequential(
      (0): Conv(
        (conv): Conv2d(576, 64, kernel_size=(3, 3), stride=(1, 1), padding=(1, 1), bias=False)
        (bn): BatchNorm2d(64, eps=0.001, momentum=0.03, affine=True, track_running_stats=True)
        (act): SiLU(inplace=True)
      )
      (1): Conv(
        (conv): Conv2d(64, 64, kernel_size=(3, 3), stride=(1, 1), padding=(1, 1), bias=False)
        (bn): BatchNorm2d(64, eps=0.001, momentum=0.03, affine=True, track_running_stats=True)
        (act): SiLU(inplace=True)
      )
      (2): Conv2d(64, 64, kernel_size=(1, 1), stride=(1, 1))
    )
  )
  (cv3): ModuleList(
    (0): Sequential(
      (0): Conv(
        (conv): Conv2d(192, 192, kernel_size=(3, 3), stride=(1, 1), padding=(1, 1), bias=False)
        (bn): BatchNorm2d(192, eps=0.001, momentum=0.03, affine=True, track_running_stats=True)
        (act): SiLU(inplace=True)
      )
      (1): Conv(
        (conv): Conv2d(192, 192, kernel_size=(3, 3), stride=(1, 1), padding=(1, 1), bias=False)
        (bn): BatchNorm2d(192, eps=0.001, momentum=0.03, affine=True, track_running_stats=True)
        (act): SiLU(inplace=True)
      )
      (2): Conv2d(192, 1, kernel_size=(1, 1), stride=(1, 1))
    )
    (1): Sequential(
      (0): Conv(
        (conv): Conv2d(384, 192, kernel_size=(3, 3), stride=(1, 1), padding=(1, 1), bias=False)
        (bn): BatchNorm2d(192, eps=0.001, momentum=0.03, affine=True, track_running_stats=True)
        (act): SiLU(inplace=True)
      )
      (1): Conv(
        (conv): Conv2d(192, 192, kernel_size=(3, 3), stride=(1, 1), padding=(1, 1), bias=False)
        (bn): BatchNorm2d(192, eps=0.001, momentum=0.03, affine=True, track_running_stats=True)
        (act): SiLU(inplace=True)
      )
      (2): Conv2d(192, 1, kernel_size=(1, 1), stride=(1, 1))
    )
    (2): Sequential(
      (0): Conv(
        (conv): Conv2d(576, 192, kernel_size=(3, 3), stride=(1, 1), padding=(1, 1), bias=False)
        (bn): BatchNorm2d(192, eps=0.001, momentum=0.03, affine=True, track_running_stats=True)
        (act): SiLU(inplace=True)
      )
      (1): Conv(
        (conv): Conv2d(192, 192, kernel_size=(3, 3), stride=(1, 1), padding=(1, 1), bias=False)
        (bn): BatchNorm2d(192, eps=0.001, momentum=0.03, affine=True, track_running_stats=True)
        (act): SiLU(inplace=True)
      )
      (2): Conv2d(192, 1, kernel_size=(1, 1), stride=(1, 1))
    )
  )
  (dfl): DFL(
    (conv): Conv2d(16, 1, kernel_size=(1, 1), stride=(1, 1), bias=False)
  )
)
Layer 22 is GradReversal()
Layer 23 is Conv_BN(
  (conv1): Conv2d(192, 64, kernel_size=(3, 3), stride=(1, 1), padding=(1, 1))
  (bn1): BatchNorm2d(64, eps=0.001, momentum=0.03, affine=True, track_running_stats=True)
  (relu): ReLU(inplace=True)
)
Layer 24 is MaxPool(
  (pool): AdaptiveAvgPool2d(output_size=20)
)
Layer 25 is GradReversal()
Layer 26 is Conv_BN(
  (conv1): Conv2d(384, 128, kernel_size=(3, 3), stride=(1, 1), padding=(1, 1))
  (bn1): BatchNorm2d(128, eps=0.001, momentum=0.03, affine=True, track_running_stats=True)
  (relu): ReLU(inplace=True)
)
Layer 27 is MaxPool(
  (pool): AdaptiveAvgPool2d(output_size=20)
)
Layer 28 is Conv_BN(
  (conv1): Conv2d(128, 64, kernel_size=(3, 3), stride=(1, 1), padding=(1, 1))
  (bn1): BatchNorm2d(64, eps=0.001, momentum=0.03, affine=True, track_running_stats=True)
  (relu): ReLU(inplace=True)
)
Layer 29 is Concat()
Layer 30 is Conv_BN(
  (conv1): Conv2d(128, 32, kernel_size=(3, 3), stride=(1, 1), padding=(1, 1))
  (bn1): BatchNorm2d(32, eps=0.001, momentum=0.03, affine=True, track_running_stats=True)
  (relu): ReLU(inplace=True)
)
Layer 31 is MaxPool(
  (pool): AdaptiveAvgPool2d(output_size=10)
)
Layer 32 is GradReversal()
Layer 33 is Conv_BN(
  (conv1): Conv2d(576, 256, kernel_size=(3, 3), stride=(1, 1), padding=(1, 1))
  (bn1): BatchNorm2d(256, eps=0.001, momentum=0.03, affine=True, track_running_stats=True)
  (relu): ReLU(inplace=True)
)
Layer 34 is Conv_BN(
  (conv1): Conv2d(256, 128, kernel_size=(3, 3), stride=(1, 1), padding=(1, 1))
  (bn1): BatchNorm2d(128, eps=0.001, momentum=0.03, affine=True, track_running_stats=True)
  (relu): ReLU(inplace=True)
)
Layer 35 is MaxPool(
  (pool): AdaptiveAvgPool2d(output_size=10)
)
Layer 36 is Conv_BN(
  (conv1): Conv2d(128, 64, kernel_size=(3, 3), stride=(1, 1), padding=(1, 1))
  (bn1): BatchNorm2d(64, eps=0.001, momentum=0.03, affine=True, track_running_stats=True)
  (relu): ReLU(inplace=True)
)
Layer 37 is Conv_BN(
  (conv1): Conv2d(64, 32, kernel_size=(3, 3), stride=(1, 1), padding=(1, 1))
  (bn1): BatchNorm2d(32, eps=0.001, momentum=0.03, affine=True, track_running_stats=True)
  (relu): ReLU(inplace=True)
)
Layer 38 is Concat()
Layer 39 is Conv_BN(
  (conv1): Conv2d(64, 16, kernel_size=(3, 3), stride=(1, 1), padding=(1, 1))
  (bn1): BatchNorm2d(16, eps=0.001, momentum=0.03, affine=True, track_running_stats=True)
  (relu): ReLU(inplace=True)
)
Layer 40 is Conv_BN(
  (conv1): Conv2d(16, 1, kernel_size=(3, 3), stride=(1, 1), padding=(1, 1))
  (bn1): BatchNorm2d(1, eps=0.001, momentum=0.03, affine=True, track_running_stats=True)
  (relu): ReLU(inplace=True)
)
Layer 41 is AdaptiveAvgPooling(
  (pool): AdaptiveAvgPool2d(output_size=1)
  (fc1): Linear(in_features=1, out_features=2, bias=True)
  (flat): Flatten(start_dim=1, end_dim=-1)
)
Layer 42 is Detect(
  (cv2): ModuleList(
    (0): Sequential(
      (0): Conv(
        (conv): Conv2d(192, 64, kernel_size=(3, 3), stride=(1, 1), padding=(1, 1), bias=False)
        (bn): BatchNorm2d(64, eps=0.001, momentum=0.03, affine=True, track_running_stats=True)
        (act): SiLU(inplace=True)
      )
      (1): Conv(
        (conv): Conv2d(64, 64, kernel_size=(3, 3), stride=(1, 1), padding=(1, 1), bias=False)
        (bn): BatchNorm2d(64, eps=0.001, momentum=0.03, affine=True, track_running_stats=True)
        (act): SiLU(inplace=True)
      )
      (2): Conv2d(64, 64, kernel_size=(1, 1), stride=(1, 1))
    )
    (1): Sequential(
      (0): Conv(
        (conv): Conv2d(384, 64, kernel_size=(3, 3), stride=(1, 1), padding=(1, 1), bias=False)
        (bn): BatchNorm2d(64, eps=0.001, momentum=0.03, affine=True, track_running_stats=True)
        (act): SiLU(inplace=True)
      )
      (1): Conv(
        (conv): Conv2d(64, 64, kernel_size=(3, 3), stride=(1, 1), padding=(1, 1), bias=False)
        (bn): BatchNorm2d(64, eps=0.001, momentum=0.03, affine=True, track_running_stats=True)
        (act): SiLU(inplace=True)
      )
      (2): Conv2d(64, 64, kernel_size=(1, 1), stride=(1, 1))
    )
    (2): Sequential(
      (0): Conv(
        (conv): Conv2d(576, 64, kernel_size=(3, 3), stride=(1, 1), padding=(1, 1), bias=False)
        (bn): BatchNorm2d(64, eps=0.001, momentum=0.03, affine=True, track_running_stats=True)
        (act): SiLU(inplace=True)
      )
      (1): Conv(
        (conv): Conv2d(64, 64, kernel_size=(3, 3), stride=(1, 1), padding=(1, 1), bias=False)
        (bn): BatchNorm2d(64, eps=0.001, momentum=0.03, affine=True, track_running_stats=True)
        (act): SiLU(inplace=True)
      )
      (2): Conv2d(64, 64, kernel_size=(1, 1), stride=(1, 1))
    )
  )
  (cv3): ModuleList(
    (0): Sequential(
      (0): Conv(
        (conv): Conv2d(192, 192, kernel_size=(3, 3), stride=(1, 1), padding=(1, 1), bias=False)
        (bn): BatchNorm2d(192, eps=0.001, momentum=0.03, affine=True, track_running_stats=True)
        (act): SiLU(inplace=True)
      )
      (1): Conv(
        (conv): Conv2d(192, 192, kernel_size=(3, 3), stride=(1, 1), padding=(1, 1), bias=False)
        (bn): BatchNorm2d(192, eps=0.001, momentum=0.03, affine=True, track_running_stats=True)
        (act): SiLU(inplace=True)
      )
      (2): Conv2d(192, 1, kernel_size=(1, 1), stride=(1, 1))
    )
    (1): Sequential(
      (0): Conv(
        (conv): Conv2d(384, 192, kernel_size=(3, 3), stride=(1, 1), padding=(1, 1), bias=False)
        (bn): BatchNorm2d(192, eps=0.001, momentum=0.03, affine=True, track_running_stats=True)
        (act): SiLU(inplace=True)
      )
      (1): Conv(
        (conv): Conv2d(192, 192, kernel_size=(3, 3), stride=(1, 1), padding=(1, 1), bias=False)
        (bn): BatchNorm2d(192, eps=0.001, momentum=0.03, affine=True, track_running_stats=True)
        (act): SiLU(inplace=True)
      )
      (2): Conv2d(192, 1, kernel_size=(1, 1), stride=(1, 1))
    )
    (2): Sequential(
      (0): Conv(
        (conv): Conv2d(576, 192, kernel_size=(3, 3), stride=(1, 1), padding=(1, 1), bias=False)
        (bn): BatchNorm2d(192, eps=0.001, momentum=0.03, affine=True, track_running_stats=True)
        (act): SiLU(inplace=True)
      )
      (1): Conv(
        (conv): Conv2d(192, 192, kernel_size=(3, 3), stride=(1, 1), padding=(1, 1), bias=False)
        (bn): BatchNorm2d(192, eps=0.001, momentum=0.03, affine=True, track_running_stats=True)
        (act): SiLU(inplace=True)
      )
      (2): Conv2d(192, 1, kernel_size=(1, 1), stride=(1, 1))
    )
  )
  (dfl): DFL(
    (conv): Conv2d(16, 1, kernel_size=(1, 1), stride=(1, 1), bias=False)
  )
)
Layer 22 is GradReversal()
Layer 23 is Conv_BN(
  (conv1): Conv2d(192, 64, kernel_size=(3, 3), stride=(1, 1), padding=(1, 1))
  (bn1): BatchNorm2d(64, eps=0.001, momentum=0.03, affine=True, track_running_stats=True)
  (relu): ReLU(inplace=True)
)
Layer 24 is MaxPool(
  (pool): AdaptiveAvgPool2d(output_size=20)
)
Layer 25 is GradReversal()
Layer 26 is Conv_BN(
  (conv1): Conv2d(384, 128, kernel_size=(3, 3), stride=(1, 1), padding=(1, 1))
  (bn1): BatchNorm2d(128, eps=0.001, momentum=0.03, affine=True, track_running_stats=True)
  (relu): ReLU(inplace=True)
)
Layer 27 is MaxPool(
  (pool): AdaptiveAvgPool2d(output_size=20)
)
Layer 28 is Conv_BN(
  (conv1): Conv2d(128, 64, kernel_size=(3, 3), stride=(1, 1), padding=(1, 1))
  (bn1): BatchNorm2d(64, eps=0.001, momentum=0.03, affine=True, track_running_stats=True)
  (relu): ReLU(inplace=True)
)
Layer 29 is Concat()
Layer 30 is Conv_BN(
  (conv1): Conv2d(128, 32, kernel_size=(3, 3), stride=(1, 1), padding=(1, 1))
  (bn1): BatchNorm2d(32, eps=0.001, momentum=0.03, affine=True, track_running_stats=True)
  (relu): ReLU(inplace=True)
)
Layer 31 is MaxPool(
  (pool): AdaptiveAvgPool2d(output_size=10)
)
Layer 32 is GradReversal()
Layer 33 is Conv_BN(
  (conv1): Conv2d(576, 256, kernel_size=(3, 3), stride=(1, 1), padding=(1, 1))
  (bn1): BatchNorm2d(256, eps=0.001, momentum=0.03, affine=True, track_running_stats=True)
  (relu): ReLU(inplace=True)
)
Layer 34 is Conv_BN(
  (conv1): Conv2d(256, 128, kernel_size=(3, 3), stride=(1, 1), padding=(1, 1))
  (bn1): BatchNorm2d(128, eps=0.001, momentum=0.03, affine=True, track_running_stats=True)
  (relu): ReLU(inplace=True)
)
Layer 35 is MaxPool(
  (pool): AdaptiveAvgPool2d(output_size=10)
)
Layer 36 is Conv_BN(
  (conv1): Conv2d(128, 64, kernel_size=(3, 3), stride=(1, 1), padding=(1, 1))
  (bn1): BatchNorm2d(64, eps=0.001, momentum=0.03, affine=True, track_running_stats=True)
  (relu): ReLU(inplace=True)
)
Layer 37 is Conv_BN(
  (conv1): Conv2d(64, 32, kernel_size=(3, 3), stride=(1, 1), padding=(1, 1))
  (bn1): BatchNorm2d(32, eps=0.001, momentum=0.03, affine=True, track_running_stats=True)
  (relu): ReLU(inplace=True)
)
Layer 38 is Concat()
Layer 39 is Conv_BN(
  (conv1): Conv2d(64, 16, kernel_size=(3, 3), stride=(1, 1), padding=(1, 1))
  (bn1): BatchNorm2d(16, eps=0.001, momentum=0.03, affine=True, track_running_stats=True)
  (relu): ReLU(inplace=True)
)
Layer 40 is Conv_BN(
  (conv1): Conv2d(16, 1, kernel_size=(3, 3), stride=(1, 1), padding=(1, 1))
  (bn1): BatchNorm2d(1, eps=0.001, momentum=0.03, affine=True, track_running_stats=True)
  (relu): ReLU(inplace=True)
)
Layer 41 is AdaptiveAvgPooling(
  (pool): AdaptiveAvgPool2d(output_size=1)
  (fc1): Linear(in_features=1, out_features=2, bias=True)
  (flat): Flatten(start_dim=1, end_dim=-1)
)
Layer 42 is Detect(
  (cv2): ModuleList(
    (0): Sequential(
      (0): Conv(
        (conv): Conv2d(192, 64, kernel_size=(3, 3), stride=(1, 1), padding=(1, 1), bias=False)
        (bn): BatchNorm2d(64, eps=0.001, momentum=0.03, affine=True, track_running_stats=True)
        (act): SiLU(inplace=True)
      )
      (1): Conv(
        (conv): Conv2d(64, 64, kernel_size=(3, 3), stride=(1, 1), padding=(1, 1), bias=False)
        (bn): BatchNorm2d(64, eps=0.001, momentum=0.03, affine=True, track_running_stats=True)
        (act): SiLU(inplace=True)
      )
      (2): Conv2d(64, 64, kernel_size=(1, 1), stride=(1, 1))
    )
    (1): Sequential(
      (0): Conv(
        (conv): Conv2d(384, 64, kernel_size=(3, 3), stride=(1, 1), padding=(1, 1), bias=False)
        (bn): BatchNorm2d(64, eps=0.001, momentum=0.03, affine=True, track_running_stats=True)
        (act): SiLU(inplace=True)
      )
      (1): Conv(
        (conv): Conv2d(64, 64, kernel_size=(3, 3), stride=(1, 1), padding=(1, 1), bias=False)
        (bn): BatchNorm2d(64, eps=0.001, momentum=0.03, affine=True, track_running_stats=True)
        (act): SiLU(inplace=True)
      )
      (2): Conv2d(64, 64, kernel_size=(1, 1), stride=(1, 1))
    )
    (2): Sequential(
      (0): Conv(
        (conv): Conv2d(576, 64, kernel_size=(3, 3), stride=(1, 1), padding=(1, 1), bias=False)
        (bn): BatchNorm2d(64, eps=0.001, momentum=0.03, affine=True, track_running_stats=True)
        (act): SiLU(inplace=True)
      )
      (1): Conv(
        (conv): Conv2d(64, 64, kernel_size=(3, 3), stride=(1, 1), padding=(1, 1), bias=False)
        (bn): BatchNorm2d(64, eps=0.001, momentum=0.03, affine=True, track_running_stats=True)
        (act): SiLU(inplace=True)
      )
      (2): Conv2d(64, 64, kernel_size=(1, 1), stride=(1, 1))
    )
  )
  (cv3): ModuleList(
    (0): Sequential(
      (0): Conv(
        (conv): Conv2d(192, 192, kernel_size=(3, 3), stride=(1, 1), padding=(1, 1), bias=False)
        (bn): BatchNorm2d(192, eps=0.001, momentum=0.03, affine=True, track_running_stats=True)
        (act): SiLU(inplace=True)
      )
      (1): Conv(
        (conv): Conv2d(192, 192, kernel_size=(3, 3), stride=(1, 1), padding=(1, 1), bias=False)
        (bn): BatchNorm2d(192, eps=0.001, momentum=0.03, affine=True, track_running_stats=True)
        (act): SiLU(inplace=True)
      )
      (2): Conv2d(192, 1, kernel_size=(1, 1), stride=(1, 1))
    )
    (1): Sequential(
      (0): Conv(
        (conv): Conv2d(384, 192, kernel_size=(3, 3), stride=(1, 1), padding=(1, 1), bias=False)
        (bn): BatchNorm2d(192, eps=0.001, momentum=0.03, affine=True, track_running_stats=True)
        (act): SiLU(inplace=True)
      )
      (1): Conv(
        (conv): Conv2d(192, 192, kernel_size=(3, 3), stride=(1, 1), padding=(1, 1), bias=False)
        (bn): BatchNorm2d(192, eps=0.001, momentum=0.03, affine=True, track_running_stats=True)
        (act): SiLU(inplace=True)
      )
      (2): Conv2d(192, 1, kernel_size=(1, 1), stride=(1, 1))
    )
    (2): Sequential(
      (0): Conv(
        (conv): Conv2d(576, 192, kernel_size=(3, 3), stride=(1, 1), padding=(1, 1), bias=False)
        (bn): BatchNorm2d(192, eps=0.001, momentum=0.03, affine=True, track_running_stats=True)
        (act): SiLU(inplace=True)
      )
      (1): Conv(
        (conv): Conv2d(192, 192, kernel_size=(3, 3), stride=(1, 1), padding=(1, 1), bias=False)
        (bn): BatchNorm2d(192, eps=0.001, momentum=0.03, affine=True, track_running_stats=True)
        (act): SiLU(inplace=True)
      )
      (2): Conv2d(192, 1, kernel_size=(1, 1), stride=(1, 1))
    )
  )
  (dfl): DFL(
    (conv): Conv2d(16, 1, kernel_size=(1, 1), stride=(1, 1), bias=False)
  )
)
Layer 22 is GradReversal()
Layer 23 is Conv_BN(
  (conv1): Conv2d(192, 64, kernel_size=(3, 3), stride=(1, 1), padding=(1, 1))
  (bn1): BatchNorm2d(64, eps=0.001, momentum=0.03, affine=True, track_running_stats=True)
  (relu): ReLU(inplace=True)
)
Layer 24 is MaxPool(
  (pool): AdaptiveAvgPool2d(output_size=20)
)
Layer 25 is GradReversal()
Layer 26 is Conv_BN(
  (conv1): Conv2d(384, 128, kernel_size=(3, 3), stride=(1, 1), padding=(1, 1))
  (bn1): BatchNorm2d(128, eps=0.001, momentum=0.03, affine=True, track_running_stats=True)
  (relu): ReLU(inplace=True)
)
Layer 27 is MaxPool(
  (pool): AdaptiveAvgPool2d(output_size=20)
)
Layer 28 is Conv_BN(
  (conv1): Conv2d(128, 64, kernel_size=(3, 3), stride=(1, 1), padding=(1, 1))
  (bn1): BatchNorm2d(64, eps=0.001, momentum=0.03, affine=True, track_running_stats=True)
  (relu): ReLU(inplace=True)
)
Layer 29 is Concat()
Layer 30 is Conv_BN(
  (conv1): Conv2d(128, 32, kernel_size=(3, 3), stride=(1, 1), padding=(1, 1))
  (bn1): BatchNorm2d(32, eps=0.001, momentum=0.03, affine=True, track_running_stats=True)
  (relu): ReLU(inplace=True)
)
Layer 31 is MaxPool(
  (pool): AdaptiveAvgPool2d(output_size=10)
)
Layer 32 is GradReversal()
Layer 33 is Conv_BN(
  (conv1): Conv2d(576, 256, kernel_size=(3, 3), stride=(1, 1), padding=(1, 1))
  (bn1): BatchNorm2d(256, eps=0.001, momentum=0.03, affine=True, track_running_stats=True)
  (relu): ReLU(inplace=True)
)
Layer 34 is Conv_BN(
  (conv1): Conv2d(256, 128, kernel_size=(3, 3), stride=(1, 1), padding=(1, 1))
  (bn1): BatchNorm2d(128, eps=0.001, momentum=0.03, affine=True, track_running_stats=True)
  (relu): ReLU(inplace=True)
)
Layer 35 is MaxPool(
  (pool): AdaptiveAvgPool2d(output_size=10)
)
Layer 36 is Conv_BN(
  (conv1): Conv2d(128, 64, kernel_size=(3, 3), stride=(1, 1), padding=(1, 1))
  (bn1): BatchNorm2d(64, eps=0.001, momentum=0.03, affine=True, track_running_stats=True)
  (relu): ReLU(inplace=True)
)
Layer 37 is Conv_BN(
  (conv1): Conv2d(64, 32, kernel_size=(3, 3), stride=(1, 1), padding=(1, 1))
  (bn1): BatchNorm2d(32, eps=0.001, momentum=0.03, affine=True, track_running_stats=True)
  (relu): ReLU(inplace=True)
)
Layer 38 is Concat()
Layer 39 is Conv_BN(
  (conv1): Conv2d(64, 16, kernel_size=(3, 3), stride=(1, 1), padding=(1, 1))
  (bn1): BatchNorm2d(16, eps=0.001, momentum=0.03, affine=True, track_running_stats=True)
  (relu): ReLU(inplace=True)
)
Layer 40 is Conv_BN(
  (conv1): Conv2d(16, 1, kernel_size=(3, 3), stride=(1, 1), padding=(1, 1))
  (bn1): BatchNorm2d(1, eps=0.001, momentum=0.03, affine=True, track_running_stats=True)
  (relu): ReLU(inplace=True)
)
Layer 41 is AdaptiveAvgPooling(
  (pool): AdaptiveAvgPool2d(output_size=1)
  (fc1): Linear(in_features=1, out_features=2, bias=True)
  (flat): Flatten(start_dim=1, end_dim=-1)
)
Layer 42 is Detect(
  (cv2): ModuleList(
    (0): Sequential(
      (0): Conv(
        (conv): Conv2d(192, 64, kernel_size=(3, 3), stride=(1, 1), padding=(1, 1), bias=False)
        (bn): BatchNorm2d(64, eps=0.001, momentum=0.03, affine=True, track_running_stats=True)
        (act): SiLU(inplace=True)
      )
      (1): Conv(
        (conv): Conv2d(64, 64, kernel_size=(3, 3), stride=(1, 1), padding=(1, 1), bias=False)
        (bn): BatchNorm2d(64, eps=0.001, momentum=0.03, affine=True, track_running_stats=True)
        (act): SiLU(inplace=True)
      )
      (2): Conv2d(64, 64, kernel_size=(1, 1), stride=(1, 1))
    )
    (1): Sequential(
      (0): Conv(
        (conv): Conv2d(384, 64, kernel_size=(3, 3), stride=(1, 1), padding=(1, 1), bias=False)
        (bn): BatchNorm2d(64, eps=0.001, momentum=0.03, affine=True, track_running_stats=True)
        (act): SiLU(inplace=True)
      )
      (1): Conv(
        (conv): Conv2d(64, 64, kernel_size=(3, 3), stride=(1, 1), padding=(1, 1), bias=False)
        (bn): BatchNorm2d(64, eps=0.001, momentum=0.03, affine=True, track_running_stats=True)
        (act): SiLU(inplace=True)
      )
      (2): Conv2d(64, 64, kernel_size=(1, 1), stride=(1, 1))
    )
    (2): Sequential(
      (0): Conv(
        (conv): Conv2d(576, 64, kernel_size=(3, 3), stride=(1, 1), padding=(1, 1), bias=False)
        (bn): BatchNorm2d(64, eps=0.001, momentum=0.03, affine=True, track_running_stats=True)
        (act): SiLU(inplace=True)
      )
      (1): Conv(
        (conv): Conv2d(64, 64, kernel_size=(3, 3), stride=(1, 1), padding=(1, 1), bias=False)
        (bn): BatchNorm2d(64, eps=0.001, momentum=0.03, affine=True, track_running_stats=True)
        (act): SiLU(inplace=True)
      )
      (2): Conv2d(64, 64, kernel_size=(1, 1), stride=(1, 1))
    )
  )
  (cv3): ModuleList(
    (0): Sequential(
      (0): Conv(
        (conv): Conv2d(192, 192, kernel_size=(3, 3), stride=(1, 1), padding=(1, 1), bias=False)
        (bn): BatchNorm2d(192, eps=0.001, momentum=0.03, affine=True, track_running_stats=True)
        (act): SiLU(inplace=True)
      )
      (1): Conv(
        (conv): Conv2d(192, 192, kernel_size=(3, 3), stride=(1, 1), padding=(1, 1), bias=False)
        (bn): BatchNorm2d(192, eps=0.001, momentum=0.03, affine=True, track_running_stats=True)
        (act): SiLU(inplace=True)
      )
      (2): Conv2d(192, 1, kernel_size=(1, 1), stride=(1, 1))
    )
    (1): Sequential(
      (0): Conv(
        (conv): Conv2d(384, 192, kernel_size=(3, 3), stride=(1, 1), padding=(1, 1), bias=False)
        (bn): BatchNorm2d(192, eps=0.001, momentum=0.03, affine=True, track_running_stats=True)
        (act): SiLU(inplace=True)
      )
      (1): Conv(
        (conv): Conv2d(192, 192, kernel_size=(3, 3), stride=(1, 1), padding=(1, 1), bias=False)
        (bn): BatchNorm2d(192, eps=0.001, momentum=0.03, affine=True, track_running_stats=True)
        (act): SiLU(inplace=True)
      )
      (2): Conv2d(192, 1, kernel_size=(1, 1), stride=(1, 1))
    )
    (2): Sequential(
      (0): Conv(
        (conv): Conv2d(576, 192, kernel_size=(3, 3), stride=(1, 1), padding=(1, 1), bias=False)
        (bn): BatchNorm2d(192, eps=0.001, momentum=0.03, affine=True, track_running_stats=True)
        (act): SiLU(inplace=True)
      )
      (1): Conv(
        (conv): Conv2d(192, 192, kernel_size=(3, 3), stride=(1, 1), padding=(1, 1), bias=False)
        (bn): BatchNorm2d(192, eps=0.001, momentum=0.03, affine=True, track_running_stats=True)
        (act): SiLU(inplace=True)
      )
      (2): Conv2d(192, 1, kernel_size=(1, 1), stride=(1, 1))
    )
  )
  (dfl): DFL(
    (conv): Conv2d(16, 1, kernel_size=(1, 1), stride=(1, 1), bias=False)
  )
)
                   all        267       1656      0.324      0.312      0.116     0.0143
                   all        267       1656      0.324      0.312      0.116     0.0143

      Epoch    GPU_mem   box_loss   cls_loss   dfl_loss    da_loss  Instances       Size

      Epoch    GPU_mem   box_loss   cls_loss   dfl_loss    da_loss  Instances       Size
